cnn_weights.pth (torch, 134640 bytes, 10 tensors)

conv1.weight f4 [8, 3, 3, 3]
00000000: 0fe7 24bd 55b3 37be 6ea3 193d 02b4 66be
00000010: 61f6 cc3d f6de 033e db20 163d 1e71 d63d
00000020: 98ff 513e b4b2 83bd 4c56 2abe 0ddb 52be
00000030: a628 c5bd aadc 42be 5b99 cbbd f978 e83d
00000040: 8818 df3b 1810 6e3e 5c69 65be e751 0ebe
00000050: e23e f8bd 4e98 1b3d ae32 28bd f35e d03d
00000060: 1a6f fe3d f94f 123e b37f 3c3e 8fbd dcbd
00000070: ef0e cabd 3348 9cbe 25ae 4e3d a698 0abe
00000080: bf8e 20be 69ff 033e c1d9 0c3d 9b4c 86be
00000090: 1d85 ec3d 8921 223e ccac 43be 40f3 5e3e
000000a0: a708 5cbd a75e cabd 8b7e a8bd 232f 773d
000000b0: 50c9 093d d9da 22bd 6672 4e3e 4bd2 f53d
000000c0: 7f49 163e 5730 aa3d 2e80 bdbc 87ba 5c3e
000000d0: 02b2 513d eccc 0bbe 32f7 973e e8ad ccbc
000000e0: 3fc7 4f3d b403 c43d 60e5 b13d f622 cc3c
000000f0: 045e 373e 7255 96bd 3568 45bd 4160 f9bd
00000100: ae14 d43d c9b4 0fbe 39db 2dbe ec6c 5fbe
00000110: 19bf 9bbd ac5b 8b3d 001a 25be cc86 1bbe
00000120: d81c 36bd c4f1 963d 46cb ce3d f571 4a3d
00000130: 9e2e 3dbe 4ce7 23bd 5a6a ab3a 7eb5 f2bc
00000140: e57d c6bc 7c94 debd 1ef8 30be 5a0e 063b
00000150: afda 3e3e 558a 37be 986b 56be 9eb3 1a3e
00000160: 3639 383e 79b5 16bd e833 053d fb84 843d
00000170: 8c16 48be 586e 093e e318 b0bd 42b4 fabd
00000180: 0225 193e 111a 523e 4047 813e 47eb 4fbe
00000190: 9800 813c 7df8 1dbe 5fc4 f23d 50d7 aebc
000001a0: 3451 5abe 2050 b23c ca58 423d 98e0 dbbd
000001b0: 62b3 083e 3697 2bbe f01b 4c3e a7af ec3d
000001c0: ef8d 5abd afbf 543e f9f8 e0bd cb75 21be
000001d0: ee52 983d 73d4 43be 9382 e9bd 48fa fe3c
000001e0: a19e 3abe e78d 87bc ac48 d4bd e2bd 30bd
000001f0: b778 6dbd 6571 f23d 8596 953c 4d10 69bd
00000200: 6c36 5cbe daee 6fbe 6d58 413c 4621 3dbe
00000210: bc24 18be d455 6bbe 89c3 69bd 123e c1bc
00000220: be80 00be aa3a 183e 4e92 31bd 9bb1 09be
00000230: 46d8 55be e6c2 4abe e036 80be cfbc 56be
00000240: 30bf da3c 1490 4a3e 6983 793e 3bd3 b2bd
00000250: 3199 93bd ce62 fe3d ce15 5a3d 2ef8 893d
00000260: c011 e13c 2b5d babc ec47 2b3e 8ec8 4abc
00000270: 9ef2 6bbe c3a1 7dbc a754 27bd 5a1c 92bb
00000280: 4a4b cc3c cbc6 8c3d 880e bdbd 9136 83bd
00000290: 9301 fbbd 671e afbd f5de 583c 205f 6abe
000002a0: 0e2a 57be e241 043c a64c fcbc 0aa7 26be
000002b0: c7c7 57be 870f 6cbd 6123 51be fc5e 0abe
000002c0: cafa dc3d dffa 2fbc 0136 3fbe 58d6 38be
000002d0: 1e65 6fbe 77ac 8cbd d6ac 26be df3c 343d
000002e0: a5ec 28be 407e 5bbe e730 d6bd 4307 933d
000002f0: 2497 53bd 56de 913c fe4a 2bbc 5436 503e
00000300: adcb a53d c47a 553e 6302 b93d aac0 c0bd
00000310: a0ba 853d 5aff 9b3d f781 9dbb 43ce 383e
00000320: 2eeb 693e 98d9 8bbd 72c0 083d 9a90 023e
00000330: 3502 f13d f598 40be c740 24bd dec3 343d
00000340: b895 f6bd 7c82 2e3e 380a 21be e13e 17be
00000350: a2d2 20bd 1a6d 5dbe c71e 85bd ba6e ae3d
-0.040259417 -0.17939503 0.037509374 -0.22529605 0.100079305 0.12878022 0.036652427 0.10470794
0.20507658 -0.06430569 -0.16634482 -0.20591374 -0.09626894 -0.19029489 -0.099413596 0.11351199
0.0068083443 0.23248327 -0.22403473 -0.13898431 -0.12121369 0.037987046 -0.041063957 0.1017436
0.12423535 0.1428832 0.18408088 -0.10778343 -0.098661296 -0.30523834 0.050459046 -0.13534793
-0.15679453 0.128904 0.034387354 -0.2623032 0.11548827 0.15833105 -0.19108886 0.2177248
-0.05371919 -0.09881335 -0.08227261 0.060347687 0.033639252 -0.03975949 0.20160827 0.12003001
0.14676474 0.08310001 -0.02313241 0.2155553 0.051195152 -0.1365239 0.29680783 -0.024985269
0.050727125 0.09571019 0.08686328 0.024919014 0.17906958 -0.07340516 -0.048195083 -0.12176562
0.10355507 -0.14033808 -0.16978158 -0.21818894 -0.07604808 0.068045944 -0.161232 -0.1518814
-0.0444611 0.07370332 0.10097365 0.049425084 -0.18474814 -0.040015504 0.001307796 -0.029627558
-0.024229953 -0.10868165 -0.17282149 0.0020455332 0.18638109 -0.17923863 -0.20939481 0.15107581
0.17990574 -0.03679416 0.032520205 0.064706765 -0.19539851 0.13420999 -0.08598497 -0.12241413
0.14955524 0.20517756 0.25249672 -0.20304595 0.015747353 -0.15426822 0.11853861 -0.021342903
-0.21320039 0.021766722 0.047447957 -0.10736197 0.13349679 -0.16756901 0.19932532 0.115569405
-0.053358015 0.20776246 -0.10984988 -0.1576759 0.074376926 -0.19124012 -0.11401858 0.031125203
-0.18224575 -0.016547156 -0.103654236 -0.043149836 -0.05797645 0.118380345 0.01826025 -0.05690031
-0.21505135 -0.23430958 0.0118008675 -0.18469724 -0.14857763 -0.2298196 -0.057071242 -0.023589168
-0.12549111 0.14866129 -0.043352418 -0.13446657 -0.20883283 -0.1980091 -0.25041866 -0.20970462
0.026702493 0.19781524 0.24366535 -0.08731695 -0.07206953 0.12421189 0.05324345 0.0673679
0.027474284 -0.022749504 0.16726655 -0.0123769175 -0.2304177 -0.0154804615 -0.040852215 -0.004458946
0.024938244 0.06873854 -0.09231287 -0.06406892 -0.1225616 -0.08550721 0.013236751 -0.2288785
-0.21012136 0.008072348 -0.030798268 -0.16274658 -0.21072303 -0.057631996 -0.20423652 -0.13512796
0.10790022 -0.010740965 -0.18672945 -0.18050516 -0.23378417 -0.068688326 -0.16276869 0.044003364
-0.16496523 -0.2143488 -0.10458546 0.071791194 -0.05165781 0.017806213 -0.010454891 0.20333225
0.08095489 0.20847613 0.09033658 -0.09411748 0.065297365 0.07617064 -0.004806753 0.18047433
0.2284362 -0.06828612 0.033386655 0.12750474 0.11767999 -0.18808348 -0.04010084 0.044132106
-0.12040275 0.17041963 -0.15726554 -0.1477008 -0.039263375 -0.2162365 -0.06500011 0.08517213

conv1.bias f4 [8]
00000000: 1d18 25bd 76c2 883d 1deb 023e 2113 e93c
00000010: cadc b4bd 719f 07be da2d 543c 7d18 ae3d
-0.0403062 0.066777155 0.12785001 0.028451504 -0.08831175 -0.13244416 0.012950385 0.085007645

conv2.weight f4 [16, 8, 3, 3]
00000000: 4c11 98bd 6ecf 9f3c 09a2 983d 40b3 ed3c
00000010: 421b 03be cb26 43bd df1f 5a3e 8e1f 533e
00000020: 58ad efbd 8197 5fbd feda 7cbb 3520 e5bd
00000030: 11c0 013e 17a6 5f3d 516c 243d 236f 0cbd
00000040: 167b 103e 49cc 933d b1e8 aebc adad e43d
00000050: 2714 bebd 66d4 983b 85b2 093d 8c69 ecbd
00000060: 94f7 d4bd d1e5 5fbd 8533 8fbd ca49 4f3d
00000070: 6f5d 1bbe c2e2 dbbb a02c 33be 3fb9 00bd
00000080: 9289 e0bd 1f60 a83d c44a 2b3e 25a3 813c
00000090: e20f 26bd eb18 e2bd 9625 d1bd d7a9 b03c
000000a0: 7716 30bd e91c a2bd 02dc 18be d517 92bd
000000b0: 67d3 63be 51a7 6a3e f4e1 cf3d 5e5e 003e
000000c0: 68aa 12bd cec9 083e b568 3a3d cfe4 b33d
000000d0: 68da 1fbd 93f4 a5bd 9edd 613d fd42 17bb
000000e0: 9aff 80bd 7029 f53d 4b2d 143e 0369 c4bd
000000f0: e6bd 873d d008 bdbc 5624 1ebe b197 d1bb
00000100: 6615 e2bd 4120 c5bb 7ece afbc 1cd1 08be
00000110: 9688 9ebc c3c4 f73b 96f6 57be b2b4 6cbd
00000120: c478 dbbd 2d0a 6ebc 79a4 143e 50b0 6ebd
00000130: cd39 a23d 67c9 283e 5a36 c939 dae2 b8bc
00000140: f26e a0bd fb69 f0bd a1df 3a3e 4d8b 213e
00000150: 1d99 cbbc 603f 11bd 8829 b63d f66b 9f3c
00000160: 77e5 4c3d a21f 933d f57c 84bd 9e3e a5bd
00000170: 978f 263d 620c 15be 958e 39bd 07ae 68bd
00000180: dcec aabd 7caf 84bd 3a7e df3d 72b4 5c3e
00000190: b4fb d43d 6927 653e e75f 923d a2f8 823e
000001a0: dc84 6b3d 12ba 7cbd 7ed1 0a3e 77ab 733e
000001b0: 34d9 28bd ef60 5fbc 44d9 92bc 0bd7 debd
000001c0: 58b1 dc3c 3df1 803c b155 9ebd 38af 0ebe
000001d0: 1a65 febd bfa0 d3bd a465 bcbd c901 823c
000001e0: 8502 e83c 8ab5 1bbd 850a 353d a412 4fbd
000001f0: 90bb a73d 6d1b 413e 73f1 19be 51bc 913d
00000200: e7cb 413e 0744 943b b702 d7bd ef40 65bb
00000210: 8fa4 9d3d 9de8 8d3d 6a87 c43d b099 963d
00000220: c0e2 d1bd 2364 0ebe a524 783b 400c 8abd
00000230: 0c2b 923d dccc 663d 0cf5 013e 0f7b e8bd
00000240: e711 87bc 7b16 4bbd 8402 393d 63d0 513c
00000250: cc2b bf3b ee71 ea3c a149 003d d020 e03d
00000260: e0b1 803d 20a9 2b3e cb12 b93a 6053 633d
00000270: 1f91 cb3d fb74 73bc 651e 9f3d 7a88 083e
00000280: 1b5b ac3d 01e2 233d 456b 4c3e f690 f13d
00000290: 52f9 993d 8b33 62ba 4f91 e2bd bfce 18bd
000002a0: b0f4 853d 46d1 aebd 65ed 9dbd e39a adbd
000002b0: bff8 38be f8da 7bbe 006e 283d b26d 98bd
000002c0: 42ab 93bb 8a7c d33c 9324 bbbc 61b9 8bbc
000002d0: 4027 c4bd a65c ae3d f03c 0e3e 387e e53d
000002e0: fe86 f73d 903e 123d 7762 10bd 961d e63c
000002f0: 82ca e33d ee2f 343e 7ea1 803c 082b 173e
00000300: 4871 7fbc f49b 153d ced8 8bba 7a5b e03d
00000310: e66f d03d d610 cfbd f3c3 173d bc47 fc3c
00000320: cc20 f93d 687e 8f3d a639 0d3e f436 103e
00000330: 0e0d f43d ff7e a83d e768 cabd 408f a6bd
00000340: 9f61 6e3d 18f8 0d3d 0f13 bdbd edd4 783d
00000350: 9315 9ebc f7b5 bbbd 564e 0abd 1252 043c
00000360: 3272 9fba d71b 7ebb d01b e4bd 593e f6b9
00000370: fd05 853b 2536 093e 2564 59bd 8d46 4ebc
00000380: e8cb 803c 4960 9cbc a87d b13d 369b 0fbe
00000390: e2fe 13bd bb19 173e ed83 09be 9cbf cebd
000003a0: 77fc 9e3d 4a32 8c3d 6c2e 903d 07f4 133e
000003b0: ec4d 5ebd 8945 813d 1104 473d b86b b73d
000003c0: 83ac 073e 01ec ca3d dee8 cdba 110c 2abe
000003d0: bc66 2ebe 5b12 bcbd 6e75 d23b 8eef c1bd
000003e0: 4501 03bd 48b8 3cbe 4ac3 493d 6fff cd3d
000003f0: e4df fbbd 6534 06bd a50b 3cbd 8d8d c23d
-0.07425174 0.01950809 0.07452781 0.029016137 -0.12803367 -0.047644418 0.2130122 0.20617506
-0.117029846 -0.054587845 -0.0038582678 -0.11187784 0.12670924 0.054601755 0.04014236 -0.034285676
0.14109454 0.07216699 -0.02135119 0.111659385 -0.092811875 0.0046639917 0.033617515 -0.11543569
-0.10398784 -0.05466253 -0.069922484 0.05060748 -0.15172361 -0.0067103812 -0.17497492 -0.031426664
-0.109637395 0.08221459 0.1672774 0.015824864 -0.04054249 -0.11039909 -0.10212247 0.021565361
-0.042990174 -0.079156704 -0.14927676 -0.07133452 -0.22248612 0.22915389 0.10150519 0.12535998
-0.035807043 0.13358232 0.045510013 0.08783876 -0.039026648 -0.081032895 0.05514299 -0.00230807
-0.06298752 0.11970794 0.14470403 -0.09590342 0.06628017 -0.023075491 -0.15443549 -0.006396257
-0.11039238 -0.006015808 -0.021460768 -0.13361019 -0.019352239 0.0075612976 -0.21090159 -0.057789512
-0.107163936 -0.014528793 0.14515866 -0.058273613 0.07921181 0.16483079 0.00038378203 -0.022569109
-0.07833661 -0.11738964 0.1824937 0.15775795 -0.024853284 -0.03546083 0.0889464 0.01946066
0.050023522 0.07183768 -0.06469146 -0.08068584 0.04066428 -0.14555505 -0.045301992 -0.05680659
-0.083459586 -0.064787835 0.10912748 0.2155321 0.10399571 0.22378315 0.07147198 0.25580317
0.05749975 -0.061700888 0.13556477 0.23795877 -0.041222766 -0.013633951 -0.017925866 -0.1088086
0.026940033 0.015740031 -0.07731188 -0.13934028 -0.12421627 -0.10333394 -0.09199074 0.015869992
0.028321514 -0.038014926 0.044199485 -0.050554886 0.081900716 0.18858118 -0.15033512 0.07115997
0.18925439 0.004524711 -0.10498565 -0.003498133 0.07697403 0.06929133 0.09596141 0.07353532
-0.10248327 -0.13905387 0.0037863639 -0.06740618 0.07137117 0.056347713 0.12691134 -0.113515966
-0.016488029 -0.049581986 0.045168415 0.012806031 0.0058340784 0.028618779 0.031320218 0.109437585
0.06283927 0.16763735 0.0014119981 0.055499434 0.09939789 -0.014859433 0.07769469 0.13333312
0.084158145 0.040010456 0.19962795 0.11795227 0.07518257 -0.00086288963 -0.11062872 -0.037306543
0.06540811 -0.085360095 -0.07711295 -0.08476808 -0.18063639 -0.24595249 0.04112053 -0.07442798
-0.0045064995 0.02581622 -0.022844588 -0.017056169 -0.09577799 0.08513765 0.13890433 0.11205715
0.120862946 0.035704195 -0.035250153 0.02809028 0.1112261 0.17596409 0.015702005 0.14762509
-0.015590973 0.03652568 -0.0010669471 0.10954948 0.10177593 -0.10110633 0.037052106 0.030795924
0.12164459 0.07006532 0.13791522 0.14083463 0.119165525 0.082273476 -0.0988329 -0.081327915
0.058198567 0.03466043 -0.09232151 0.060749937 -0.019297397 -0.091655664 -0.033766113 0.008076208
-0.001216477 -0.0038773918 -0.11138117 -0.0004696723 0.0040595517 0.13399561 -0.05307402 -0.012590063
0.01572223 -0.019088881 0.08666545 -0.14024052 -0.036131747 0.14755909 -0.13429232 -0.1009514
0.077629976 0.068455294 0.07040104 0.14448558 -0.05427353 0.06312091 0.048587862 0.089560926
0.13249402 0.099082954 -0.0015709659 -0.16606165 -0.17031378 -0.091831885 0.00642269 -0.094695196
-0.031983633 -0.18429673 0.049258508 0.10058486 -0.12298563 -0.03276481 -0.045909543 0.09499655

conv2.bias f4 [16]
00000000: 1ea5 d13d 5545 703d b203 a23d b0df 03be
00000010: 4eec 2e3d 76a3 9ebd 6838 68bc c340 0e3e
00000020: 3ee9 8cbd bcce 10bd 2636 d7bd 7b79 f33b
00000030: 9878 fb3d 19e7 31bd 1fae 6b3d 27f0 ccbd
0.10236572 0.05865987 0.07910861 -0.12878299 0.042705826 -0.077460214 -0.014173605 0.13891892
-0.06880425 -0.035353407 -0.10508375 0.007430253 0.12278861 -0.043433283 0.0575391 -0.10006743

conv3.weight f4 [32, 16, 3, 3]
00000000: 6d35 b93d 3329 de3d 1139 a83b aa1e 9cbd
00000010: e9ee 31bc 22f0 acbd f481 e03d d08c 933b
00000020: 9266 173d 7139 2dbe 9b38 26be 6575 d6bd
00000030: 80fd 90bd bce5 58be e83a 163d 4b51 88bd
00000040: 1e5f f8bd 0a8d aa3c fcc0 433d 306c 003d
00000050: 47bb 5a3c fa4d 7e3d e953 53bd 2728 6dbd
00000060: 0be4 1e3d 0397 f1bc deb7 a0bd e772 603d
00000070: 1d4a 053d e7df 0e3d 620a 2bbd 5592 79bd
00000080: 98ed 21be 3e98 773c f4bf e13b f6ac a5bc
00000090: 4b42 03be 4ff2 bcbc 2a05 2a3d 6e4e 3b3c
000000a0: a3f8 d03d e2ff da3d b48c 733d be3c 1a3d
000000b0: f63b 323e c052 b13a e917 073d c336 cdbc
000000c0: fb68 863d c569 10bc 10a7 23be c6cc df3c
000000d0: c752 8ebd 8ca6 e0bd 8567 0e3e ab8e 193d
000000e0: ed8d a03d ee97 8abd 83cd f9bd 19b9 b2bd
000000f0: f452 9c3d 41c2 84bc 1beb 16bd c00c f73d
00000100: 7d4d 983d 0130 abbc 76e9 d03d 2274 01bc
00000110: 843b 16be f2c5 973d 707f e03d 99a7 0abe
00000120: d81e 8f3d 1e9d 4d3d 691a bbbd c145 91bd
00000130: 4ade 1ebd eeed 18be d5f2 98bc 3739 20bd
00000140: cabd 5aba efb2 933d d830 d03c e743 4c3c
00000150: a8d3 7e3d 4b0a 453d 80ca 05be a9b6 d03d
00000160: e73a 13bb 86e4 92bc c413 0dbe 8efe febd
00000170: ae83 8fbc 8049 4abe 5385 f6bd 7698 b5bd
00000180: 364b 5f3d eb8c 8dbc d6b5 0cbe 6875 fbbd
00000190: 135b e9bc dca6 c4bb 8364 d23d 3820 3a3e
000001a0: d0a9 ea3d dd3c c8bc 3166 243d 8295 173e
000001b0: 90c7 dabc d1c2 a93d b638 92bc 823c 6cbb
000001c0: 84e5 21be 43dc 23be b31e 2b3d f4e4 823d
000001d0: 3840 52bd 18a6 8cbd d52c 93bd 0500 34bd
000001e0: 93a4 a0bd 0099 7c3d f5bf f43d 9c71 8ebc
000001f0: d0a4 ac3d 92c8 ba3c d688 7d3d 34c3 8fbd
00000200: 0366 8abc eee0 b43d 92f3 da3d 6204 e73b
00000210: c0a7 90bc 6d1d 19bd db9a 183d 9aba 05be
00000220: 0d3c 92bd b37e 0abd 15ab 3bbe 0af6 09bd
00000230: 2375 c7bc acda 763c 6a41 243d 9692 903c
00000240: e70e b5bd c51d 1fbd 2f5e e7bd 4093 d6bd
00000250: e35d 20bd c882 c6bd 6b10 afbd 2573 cb3d
00000260: c1bb 2a3d 4bd1 513e 72a6 7a3e 10d9 c9bd
00000270: 3090 a03c aea9 bf3d 8052 e3bd 8a7b b43d
00000280: 10a4 063c 2d89 c7bd 21e6 c9bd b5ff 54bd
00000290: 9c45 cf3c 5020 253d ec38 583d 6c44 68bc
000002a0: a40f ac3d 4a48 513c 4528 b53d b010 9737
000002b0: 3d51 e63c dcff b2bb 9a9e 0f3e ef04 e73d
000002c0: 3ae4 06be 1dcd 23bd 4584 75bd 28a2 aebd
000002d0: acfe 053e 0c15 06bc aa74 a23c 4476 d43c
000002e0: 85b2 483d fbae 6f3d 77fc 51bd 18dd 05be
000002f0: 9369 f63c 6402 883d e781 fa3c a648 dabb
00000300: 32c2 7d3d 209a e23d 2a3b 013c 1d45 18be
00000310: 7167 cdbd 519b f3bd ba20 d03b f466 f43d
00000320: 2098 fb3d 3887 3ebe cc6a 09be 69c3 4dbe
00000330: 40c5 13bb e886 a93c 9456 84bd f800 5a3d
00000340: 8a12 363e d144 7c3d 4d82 84bd 2839 b53d
00000350: c346 b93c 1022 09be e291 14be 9c92 bb3c
00000360: 22f2 fcbd a9bc 833d 52b9 c83d ccca 3ebe
00000370: 54ea b2bd 8272 54bd edf7 a5ba 0961 f9bc
00000380: 767d ee3c 293a 943b 619d 72bd 8fde 2a3d
00000390: f86c cfbd da93 803d b8c1 57bd 964b adbd
000003a0: f859 bdbc 999e a23d 3374 3e3e 7357 a63e
000003b0: 2a10 b93d 19c5 9cbc 6651 133e 6c8f 1abd
000003c0: 6078 163b ef37 633c 688a 9fbd 8739 823d
000003d0: cc51 8b3d 05e3 c43d 48e5 73bd ee16 29bd
000003e0: 64d2 83bd a1ba 1bbe 7bfd babe ba82 dcbd
000003f0: 0dcb 2d3c 2d49 113e 7a27 053c 12ed 7ebb
0.09043393 0.10847702 0.005133756 -0.07623036 -0.010860183 -0.08444239 0.109622866 0.00450287
0.036963053 -0.16916443 -0.16232531 -0.1047161 -0.07079601 -0.21181387 0.03667727 -0.066561304
-0.12127517 0.020819206 0.047791466 0.031353176 0.013350314 0.062086083 -0.051593695 -0.05789962
0.038791697 -0.029490953 -0.0784757 0.05479708 0.032541383 0.0348815 -0.04175795 -0.06093057
-0.15813291 0.015111981 0.0068893377 -0.020224076 -0.12818258 -0.02306476 0.04150883 0.011432273
0.10203674 0.10693337 0.059460357 0.037655585 0.17405686 0.001352869 0.032981787 -0.025050526
0.06562992 -0.00881428 -0.15981698 0.027319323 -0.06949382 -0.10969266 0.13906677 0.037489574
0.0783957 -0.067672595 -0.121974014 -0.08726711 0.076330096 -0.016205909 -0.036845308 0.12062979
0.07436655 -0.020896913 0.10200779 -0.007901223 -0.14671141 0.07410802 0.10961807 -0.13540496
0.06988305 0.050198667 -0.09135897 -0.070933826 -0.03878621 -0.14934513 -0.018670479 -0.039117064
-0.0008344321 0.07211863 0.025413916 0.012467361 0.06221357 0.04810552 -0.13065529 0.1019109
-0.0022465528 -0.017931234 -0.13777071 -0.12450896 -0.017518844 -0.197546 -0.12037148 -0.0886697
0.054515086 -0.017279109 -0.1374124 -0.12278253 -0.02848581 -0.0060013365 0.10273077 0.18176353
0.114581704 -0.024443084 0.04013652 0.14803126 -0.026706487 0.082891114 -0.017849308 -0.0036046808
-0.1581021 -0.16001992 0.041777324 0.063913256 -0.051330775 -0.06867617 -0.071862854 -0.04394533
-0.0784389 0.06166935 0.119506754 -0.017388158 0.08429873 0.022800718 0.061898075 -0.07019654
-0.016894346 0.088319644 0.106909886 0.007050083 -0.017658114 -0.03738158 0.037257057 -0.13059464
-0.0714036 -0.033812236 -0.18326981 -0.033681907 -0.024347847 0.015066784 0.040101446 0.017648023
-0.08840733 -0.03884675 -0.11297261 -0.104773045 -0.039152037 -0.09692913 -0.08548053 0.099340715
0.041682962 0.20489995 0.24477556 -0.098558545 0.019600004 0.09358536 -0.1109972 0.08812626
0.0082178265 -0.09742961 -0.09858347 -0.052001674 0.025301747 0.04031402 0.05278866 -0.014176469
0.08401421 0.012773583 0.088455714 1.8008373e-05 0.02811491 -0.0054626297 0.14025345 0.11280238
-0.13172999 -0.039990533 -0.059940595 -0.085270226 0.13085431 -0.008183729 0.01983102 0.0259353
0.048998374 0.058516484 -0.05126616 -0.13072622 0.030079639 0.06641081 0.03057952 -0.0066614924
0.061952777 0.11064553 0.007887641 -0.14870115 -0.100294955 -0.11894859 0.0063515576 0.11933699
0.12284875 -0.1860627 -0.13419646 -0.20094074 -0.002254799 0.020694211 -0.06461826 0.05322358
0.1778051 0.061589066 -0.064701654 0.08848792 0.02261675 -0.133919 -0.14508775 0.022897057
-0.12350871 0.064324684 0.09800972 -0.18632048 -0.08736101 -0.051867016 -0.0012662389 -0.030441778
0.029112559 0.004523535 -0.05923212 0.041716155 -0.10128206 0.062782004 -0.05267498 -0.084616825
-0.02311419 0.07940406 0.18599014 0.32488593 0.09036286 -0.019136952 0.1438652 -0.037734434
0.0022959933 0.013868316 -0.07790071 0.06358629 0.06802711 0.09613613 -0.05954483 -0.041281633
-0.06436613 -0.15207912 -0.36521515 -0.107671216 0.010607493 0.1418807 0.008127088 -0.003889863

conv3.bias f4 [32]
00000000: 8aef 1f3e 0986 8dbd a32c cf3d 92fe 1d3d
00000010: 711a 7abd e8c8 593d 38b0 d0bd ba52 f3bd
00000020: 3de3 bdbd 1032 40bc 29e2 72bc fe1a a3bd
00000030: 4ae3 41bd 3ada 17bd ed56 80bb fa40 fcbd
00000040: 2e1e 8ebd 2cc1 843d 9f39 bebd 8626 f4bd
00000050: dd13 ffbd c9a1 0abe 9b43 05bd a94e f6bd
00000060: 0864 673d f267 b5bd 4c3f 993d 1266 aebd
00000070: 6cdb f33d b906 15bc 0c24 34bd 0f33 063e
0.1561872 -0.06910331 0.10115936 0.038572855 -0.061060373 0.053170115 -0.10189861 -0.11881013
-0.09271858 -0.011730686 -0.014824429 -0.07964133 -0.0473359 -0.03707335 -0.0039166124 -0.12317081
-0.0693935 0.06482157 -0.09288334 -0.1192141 -0.124549605 -0.13538279 -0.032535177 -0.12026722
0.05649188 -0.088577166 0.07482776 -0.08515562 0.11907086 -0.009095841 -0.04397969 0.13105415

conv4.weight f4 [64, 32, 3, 3]
00000000: 8aeb aa3d 6abc 5cbc 035a 90bd dc5e bdbd
00000010: f489 1fbd 4bbb 40bd 9e7d d6bc 541d a4bd
00000020: 7225 44bd 900e 093d 72d3 153d 2f55 b13b
00000030: 5580 5e3d b7cf fb3c 7349 6d3d 9f96 533d
00000040: 2914 843d 4ea2 bebc 2278 373d c50b 163d
00000050: 975b be3d bd0e 963c ff38 1bbd 4d28 153d
00000060: 4538 943c d9ec 62bc 5437 d4bd 10b7 a93b
00000070: dd3c 953d b3d2 dd3c 28d5 5a3d 755f 473d
00000080: 077d e8bc 121c 03bd 7c28 f1bc c74d b1bd
00000090: a184 19bd 2a9b 333d b099 5a3d 164a 0ebb
000000a0: 2d95 b9bc ddd5 c2bc 80d8 903c caf0 1dbc
000000b0: f467 35bd 5cc9 883b cd63 b43d 0b2e cf3d
000000c0: b2ab 98bd 8ee0 00be d77a 95bd e6db b13c
000000d0: 7063 833d 964f 12bd 311f d5bd 9a95 c5bd
000000e0: e672 1bbd 95a1 f7bc 6601 093c ded6 cd3d
000000f0: 5933 d0bc e812 2ebd 3123 3c3c 3820 0a3b
00000100: 4ba0 ed3d 7772 8fbc 1f1b 0cbd 2f13 57bc
00000110: 8c53 ae3c c2d2 55bd f83b 0dbc ffea 45bd
00000120: 6657 3abb a978 62bd 3108 ff3c bb1a ccbd
00000130: 26af 96bc a0a7 2c3d 800a f23c 3192 9cbd
00000140: a2e1 3dbb fa31 473d b73c 673d bf33 743d
00000150: 23a9 9e3b 09a1 033d 28e7 af39 7762 87bd
00000160: 9206 fe3c e066 4dbd 3d04 19bd 6e51 03bd
00000170: 6868 b2bd 1624 afbc 00e1 9f3d 1510 87bd
00000180: a09b 3dbd 1c18 b53d cf97 753d c8b4 823c
00000190: fd71 2fbd 49f2 8fba a2d7 483b 9564 8abd
000001a0: 9366 b23a 3acb 913d fb76 a03b fe23 263d
000001b0: c673 773c f795 72bb ee5e a4bc 85f0 98bc
000001c0: 18aa d9bc 1dd1 babd ff47 29bd ba91 e1bd
000001d0: a54c debd 8062 afbd e0fb 31be 07c4 ee3b
000001e0: 5ab1 bfbb dfe3 fbbc f008 b7ba 3129 eb3c
000001f0: fdc4 213d 4fe1 9c3c 1d6a 043d fa2e f8bb
00000200: ef42 b33b 363c 9e3d 8b22 cf3d f065 f539
00000210: 0818 80bc c2bb 90bd 4b78 b0bd b67f 4e3d
00000220: 37d9 b63c d9d6 86bd a6ac f0bd e0e4 c0bd
00000230: d8eb 283c 1677 d6b9 73ad a7bd d91c 83bc
00000240: 9379 b4bd 6a90 86bd 25b1 e23d f646 f6bd
00000250: e6c5 a83b a24a 103d 8e16 4f3b 6b8a a93b
00000260: c84a 353d 6eda b63b 6b6a a8bd 4636 633b
00000270: 7a1b 41bd 6322 b83c d6ed 69bd 6ec4 aebd
00000280: 03fc 2bbc 3278 bf3d d070 a8bd 2ea4 8cbd
00000290: 22fd 38bd 1f00 4cba 7359 debc 3fa9 79bc
000002a0: 2ce3 55bd c211 a63c a919 383c a9d0 23bd
000002b0: 0d81 b3bd 13d6 ee3c c2fd 6fbd 93b2 d43d
000002c0: 21e3 dc3d 8864 133d 63b3 93bd a2f2 5ebd
000002d0: 9e3a 96bd 7643 e2bc a489 b73c 44ce 8ebd
000002e0: 5c80 eebc ee8d a1bb 2da1 a2ba 4841 bdbc
000002f0: 6169 4fbb 2551 02be 423f 5bbd 5d63 1f3c
00000300: e937 8bbd 036b 913d 3bed b13d 13b8 cebc
00000310: 5688 b0bc 1d5c 7f3d 3553 7bbd 6638 b2bd
00000320: 0a45 b23c e4d1 cabd f724 13be e5e6 b5bd
00000330: 6cb4 2dbb 8e7c fd3a 33af b33c 0980 e0bc
00000340: 8e5e 23bd 5f02 5e3d dcde f1bd f503 55bd
00000350: 69bb 2b3d b9b3 a8bd c509 f53a 6627 09bd
00000360: d2a2 2c3d 35d1 8cbd f8eb 24bc 38b4 bdbd
00000370: 1954 e5bd 037f 30bd 3599 2a3c 7fc3 36bc
00000380: beb0 99bc 5697 23bd 4b49 b43c 031d 933c
00000390: e878 58bd 37e3 cbbd 2a1f 853c 58e2 38bd
000003a0: 355e 86bd 9b7d b2bb 4b30 2f3d f2f7 033e
000003b0: 7f20 503d aa3c 7abd bb31 15be 5179 e9bd
000003c0: 47fc 56bd 5f01 e2bd 8c2a 40bd 456b e1bd
000003d0: 7548 8abd c825 8bbb b88a 05bc 1629 f93c
000003e0: 462d 4b3d e1c8 993d c117 353d 6b50 9c3c
000003f0: d9d9 083d 23d7 65bd 9278 943b 0b6d d7bb
0.08345707 -0.013472656 -0.070484184 -0.092466086 -0.03894992 -0.047053616 -0.026182946 -0.080134064
-0.047887273 0.033461154 0.036578603 0.005411766 0.054321606 0.030738695 0.057931375 0.051657315
0.06449158 -0.023270752 0.044792302 0.036632318 0.09294813 0.018317575 -0.037896153 0.036415387
0.018093238 -0.013850414 -0.103621155 0.0051792935 0.072869994 0.027078008 0.053425938 0.04867502
-0.02837993 -0.03200919 -0.02943825 -0.08657413 -0.03748 0.043849148 0.053369224 -0.002171164
-0.02265414 -0.023783619 0.01768136 -0.009639928 -0.04428859 0.0041743945 0.08808098 0.10116204
-0.07454623 -0.12585661 -0.072988205 0.021711301 0.064154506 -0.03572043 -0.1040634 -0.09647675
-0.037951373 -0.030228416 0.00836215 0.10050748 -0.02541511 -0.0424985 0.011483 0.0021076333
0.11602839 -0.017510636 -0.034205552 -0.013127132 0.021280073 -0.052202947 -0.008620255 -0.048319813
-0.0028433441 -0.05529085 0.031131836 -0.09966036 -0.018394064 0.042152047 0.029546022 -0.07645071
-0.00289736 0.048631646 0.056454387 0.05961966 0.00484194 0.032135997 0.00033550826 -0.066105776
0.031008992 -0.050146937 -0.037357558 -0.03206008 -0.0871132 -0.021379512 0.07806587 -0.06594864
-0.046290994 0.08842489 0.05995923 0.015955344 -0.042833317 -0.0010982241 0.0030646105 -0.06757466
0.0013610892 0.071188405 0.004896996 0.04056167 0.015103286 -0.0037015656 -0.020064797 -0.018669376
-0.026570365 -0.091219164 -0.041328426 -0.11014123 -0.108544625 -0.08563709 -0.17381239 0.007286552
-0.0058499994 -0.030748306 -0.0013964456 0.028706165 0.039494503 0.019150404 0.03232776 -0.0075739594
0.0054706256 0.07726328 0.101140104 0.0004680599 -0.015636459 -0.07067062 -0.08616694 0.050414763
0.022320373 -0.06583948 -0.1175168 -0.094186544 0.010310136 -0.00040905987 -0.0818738 -0.016004967
-0.08812251 -0.065705135 0.11068944 -0.120252535 0.0051505445 0.035227425 0.0031599137 0.0051739714
0.04426077 0.005580238 -0.082234226 0.00346698 -0.047145344 0.022477334 -0.057111584 -0.0853356
-0.010497096 0.09349097 -0.08224642 -0.06867252 -0.04516328 -0.00077820005 -0.027142262 -0.015238105
-0.0522186 0.02027214 0.011236587 -0.039993916 -0.08764849 0.029154813 -0.05859161 0.10385623
0.10785509 0.035984546 -0.0721195 -0.05443061 -0.07335399 -0.027620059 0.0224045 -0.06972936
-0.02911394 -0.0049302494 -0.0012407653 -0.023102418 -0.0031648504 -0.12726267 -0.053527124 0.00972828
-0.067977734 0.07100489 0.08687826 -0.025234258 -0.021549385 0.062343705 -0.06135865 -0.087021634
0.021761436 -0.09903315 -0.1436957 -0.0888193 -0.0026505245 0.0019339488 0.021934127 -0.027404802
-0.039885096 0.05420148 -0.11810085 -0.052005727 0.041926775 -0.082374044 0.0018694928 -0.03348484
0.042147465 -0.068758406 -0.010066025 -0.092628896 -0.11197681 -0.043089878 0.010412504 -0.011155008
-0.018761035 -0.039939247 0.022007605 0.01795817 -0.05284968 -0.09955447 0.016250212 -0.045137733
-0.06560937 -0.0054471022 0.042770665 0.12887552 0.05081224 -0.06109301 -0.14569752 -0.114000924
-0.052486684 -0.11035418 -0.046915576 -0.11006788 -0.06752101 -0.0042464472 -0.008150749 0.0304151
0.049603723 0.07509018 0.044212107 0.019081315 0.03341088 -0.056113373 0.0045309747 -0.006574278

conv4.bias f4 [64]
00000000: 2f23 433d 5e67 8dbd d19e c03c c5b9 84bd
00000010: 094e 1ebd 6c7f 0cbd a32c cbbc bdb3 a0bd
00000020: 409b dfbd e341 b5bd 1ac1 dc3c 39a6 5b3d
00000030: f92b 1c3d aed1 df3c 84e2 ec3c 973a 77bd
00000040: c5e1 16bc f0bb 23bc 4074 02bd f147 dfbc
00000050: 2be0 18bd c2b1 933c 1c77 de3d 1430 483d
00000060: dd13 003d 6313 67bd effd c13c 3e7d 08bb
00000070: 47db 8ebd c60c 563d 293f 0abd e096 e33c
00000080: 1e73 243d 49d8 f2bb c437 b4bc f2fd 4b3d
00000090: 0314 0c3c 3f9d 26bc e3d7 fdbc 8358 183d
000000a0: 5991 253c 7aa2 2dbd 4556 4abb aac8 39bd
000000b0: ea63 3ebd 5a21 09bc a711 8cbd 142a 6dbd
000000c0: 8272 ea3d 6998 283d baf6 6dbb 0c2a 2bbd
000000d0: b4c6 923c 6b2c abbc e461 b23d dffb 8ebd
000000e0: d263 b1bc d8c7 21bd 30b1 283b f085 383d
000000f0: d151 4b3d c56d 8abc 0e43 f7bc 559d ccba
0.047640976 -0.06904481 0.02351323 -0.06480745 -0.03864864 -0.034301206 -0.024801558 -0.07846782
-0.109182835 -0.088504575 0.026947547 0.05362532 0.038127873 0.027321663 0.028916605 -0.06035861
-0.009209101 -0.009993538 -0.031849146 -0.027255984 -0.03732316 0.018029097 0.10862562 0.048873976
0.031268943 -0.056414973 0.023680655 -0.0020826603 -0.069754176 0.052258275 -0.03375164 0.027781904
0.040148847 -0.007411037 -0.021999247 0.049802728 0.008549693 -0.010169326 -0.030986732 0.037193786
0.010105454 -0.042391278 -0.0030874175 -0.045357384 -0.046482004 -0.008369768 -0.068393044 -0.057901457
0.11447622 0.041160975 -0.003631039 -0.041788146 0.017917015 -0.020895204 0.087100774 -0.06981634
-0.021654043 -0.039497226 0.0025740378 0.045049608 0.049638573 -0.016898045 -0.030183341 -0.0015610853

fc1.weight f4 [2, 4096]
00000000: 9995 d3ba 166c e83c dcd0 8dbb a875 a9b9
00000010: 9dfb 35bc 7650 17ba c50d 0ebd 3e07 02bd
00000020: 5b73 cb3b 7baf d83c 169c 983c af8f 7cbc
00000030: 8d7a 9c3b 32a3 54bb 9f20 26bd 2c17 9bbc
00000040: a2ca 893b c652 073d 7a7b 853c 8dc6 5c3b
00000050: b9da 273c a788 00bd bc3a 75bd c78b 953a
00000060: dd9f 7fbc 702c b53b 1aca 67bc a9fe 26bc
00000070: ed17 333a ffb1 20bd c06c e4bc 9daf b9bc
00000080: 4dc1 c1bc 6e5e 2dbd 1e55 e4bd d936 babd
00000090: fdea eebd 4153 43bc 7c3a bebc 4ff4 9d3b
000000a0: 134e 89bc 3594 60bd fdad a3bc 56c4 803a
000000b0: 3d2d 14bd 4883 423c 2a1a 893c 760c 3f3d
000000c0: fdfe d0bc 9ead c73c 0483 54bc 4f51 0ebe
000000d0: 9d1d 01bd ee68 ae3c 9b5c b0bb 0aeb 0e3c
000000e0: 9164 513c 2beb e53c 3173 613b 571b db3d
000000f0: b229 c33c 8e8b 783c 0b15 8abc ff5a 30bb
00000100: fbfc 1c3d f803 3937 60ce ddbd 3a44 a4bd
00000110: 6b00 5abd f65c 1bbd 2cf7 563c ee3b bb3c
00000120: 2b87 0c3d 8c68 ae3c ef61 473d f14c 363d
00000130: 4b22 30bc 5a6f b9bd 4076 8f3d 0414 3e3d
00000140: 2788 90bc 5692 913b d836 833d 129d a43c
00000150: 7bc2 74bc 8a85 84bd 35e7 aabd edc9 ee3b
00000160: deff 32bc 76bd a8bc 4003 963d efd4 08bd
00000170: 60c6 853d b8e3 1cbe eca3 cb3b 7c04 d93c
00000180: 5a12 ec3b 607d cd3d 44c5 013c 4cd9 30bc
00000190: e827 a5bc ba5b 36be 7a5d 0fbd 51b8 583d
000001a0: 768a 6ebd 38fc 753a 4fd4 533c c555 82bd
000001b0: 79bc a83c 0001 ff3c e84e 133d 357e e63d
000001c0: af96 63bd d994 0abd 67fe 073e 27a9 16bd
000001d0: 67b3 e33d ef84 093e 40a2 1d3e c91a a23d
000001e0: e382 37bc d3cb 8cbd 825c d13c b31b b93d
000001f0: 98b4 303d 3da4 663d aade 7a3d 6c05 1fbd
00000200: 3f39 6dbc 4394 59bd e199 243c 0cdc 70bd
00000210: f755 67bd a5d0 3b3c e459 c7bc 0e3b 85bd
00000220: 4f45 fcbb b17c 543c 40dc 3cbb fa72 a53c
00000230: 7785 1e3c 95b0 903c 6fb8 29bb 3fb7 dcbc
00000240: ad99 43bc 48a7 863c 27d6 8abd 9f98 4d3c
00000250: a468 70bc 42c2 6dbd 5305 e3bb 8692 efbc
00000260: 6a6d f43a 7f94 edbb 7d12 a83c b81d 33bb
00000270: d196 733d d47f 44bc 8fff 80bc a202 9d3c
00000280: a5fb 6c3c fac6 94bc 9c33 043d 4765 023e
00000290: 0214 7cba 2018 a53d ebf4 fabc 0f7a 07bd
000002a0: 5ce3 60bb 4318 593c 32fd e7bd d1e4 a2bc
000002b0: 85c1 0fbd 4e0c 04bd 5dc4 29bd 4497 533c
000002c0: fb9e 04bd 2ed4 0a3b 9cbf 8bbd e223 cebd
000002d0: 0f96 24be 035a 873c 3b0b 80bc d794 77bb
000002e0: 6524 2d3c 39a2 09bc 3bb1 a6bc de35 ccbc
000002f0: bd6b 8e3c 33b5 673c c3be 85bb 24b0 6bbc
00000300: 3d73 22bd 32ed 143c 38e0 3bbb 2815 fe3b
00000310: b892 3e3b 8835 8abb e38f afb9 fdeb df39
00000320: 2887 7abb 79d4 e83c a0be c03a 7c7f 383c
00000330: ba8a 573c c03d 99bb 4107 843b 5dde 7a3c
00000340: 181a 753c 1829 b2bb b6e5 793c 54e5 403c
00000350: 7003 063b 92ae 79bc f8b5 073b 0f53 523b
00000360: 202c fdba cc36 cb3c ecae 8ebc 3086 94ba
00000370: ae62 583b 0db3 923c 8998 e83b b99f b73b
00000380: e8e2 6fbc 20fa 30bc fea6 6c3c 8089 2cb9
00000390: d062 8aba b135 433c ee27 3e3c d089 88bc
000003a0: 5769 fdbc 300b 6b3c c46d 683c 50b7 21bb
000003b0: 4aa9 4f3c 003b 2bbb 0275 5bbc fe40 7abc
000003c0: 6c74 e73b 40bc 0bbc a831 fe3b 7889 483b
000003d0: 2aa5 643c a07b cf3b f833 da3b 74a4 98b9
000003e0: 0040 ef3a 60b0 20bb 260d 293c 7685 4e3c
000003f0: c03a 523a 402d a3bb 2bab 17bc 9033 06b7
-0.0016142606 0.028371852 -0.0043278765 -0.00032321853 -0.011107353 -0.00057721825 -0.0346811 -0.031745188
0.00620882 0.026450863 0.018629115 -0.015415116 0.0047753514 -0.0032445905 -0.040558454 -0.018931948
0.004205064 0.033037923 0.01629423 0.0033687681 0.010245019 -0.03138032 -0.059870467 0.0011409455
-0.015602079 0.005528979 -0.014147306 -0.010192552 0.00068318733 -0.03923225 -0.027883887 -0.022666747
-0.023651743 -0.042326383 -0.11149047 -0.090924926 -0.11665914 -0.011921705 -0.023221247 0.0048203836
-0.016760862 -0.05482884 -0.019980425 0.0009824138 -0.036175955 0.01187212 0.016736109 0.046642743
-0.025512213 0.02437478 -0.01297069 -0.13898204 -0.031522382 0.021290269 -0.005382133 0.00872303
0.012780325 0.028066238 0.0034400935 0.10698574 0.023823593 0.015169991 -0.016855737 -0.0026909707
0.0383272 1.1027783e-05 -0.108303785 -0.08020826 -0.053223055 -0.03793045 0.013120454 0.022855725
0.034308594 0.021290086 0.04867738 0.04450697 -0.010750364 -0.09054442 0.07004976 0.046405807
-0.017643047 0.0044424934 0.06406945 0.020094428 -0.014938946 -0.06470783 -0.083448805 0.007287255
-0.010925261 -0.020598155 0.07324839 -0.033406194 0.06531978 -0.15321243 0.0062146094 0.026491396
0.007204336 0.10033679 0.007920567 -0.010793995 -0.02016063 -0.17808428 -0.035001256 0.052910153
-0.058237515 0.0009383592 0.012929036 -0.063640155 0.020597683 0.031128407 0.035963923 0.11254541
-0.055563625 -0.03383336 0.1328064 -0.03678241 0.11118203 0.13429616 0.15393925 0.07915265
-0.011200639 -0.06874814 0.025556806 0.09038486 0.043140978 0.056308974 0.061247505 -0.03882353
-0.014478981 -0.05311991 0.010046453 -0.058803603 -0.056478467 0.011463319 -0.024334855 -0.065054044
-0.007698692 0.012969182 -0.0028817803 0.020196427 0.009675375 0.017662326 -0.0025897285 -0.026942847
-0.011938495 0.016437188 -0.067791276 0.012548595 -0.014673386 -0.058046587 -0.006928125 -0.029244673
0.0018648331 -0.007250368 0.020516628 -0.0027330946 0.05947 -0.011993367 -0.01574686 0.019166294
0.014464294 -0.018161286 0.03227578 0.12733947 -0.00096160185 0.08061242 -0.030634364 -0.03307539
-0.0034315204 0.013250413 -0.1132759 -0.019884499 -0.035096664 -0.032238297 -0.041447032 0.0129144825
-0.032378178 0.0021183598 -0.06823656 -0.10065438 -0.16072868 0.016522413 -0.015630355 -0.0037777924
0.010567759 -0.008400493 -0.020348182 -0.02492803 0.017385358 0.014142322 -0.0040815785 -0.014385257
-0.03966068 0.009089755 -0.002866758 0.007753987 0.002907915 -0.004217807 -0.00033485805 0.000427097
-0.0038227532 0.028421627 0.0014705248 0.011260863 0.013155634 -0.0046765506 0.004029185 0.015311805
0.0149598345 -0.0054370277 0.015252521 0.011773426 0.0020448826 -0.015239375 0.0020707827 0.0032092964
-0.0019315518 0.024806403 -0.017417394 -0.0011331495 0.0033017802 0.017907644 0.0070982617 0.005603757
-0.014641501 -0.010801822 0.014444111 -0.00016454421 -0.0010558013 0.0119146565 0.0116062 -0.016667277
-0.030934019 0.014345929 0.014186326 -0.0024675913 0.012674639 -0.0026127696 -0.013394596 -0.015274284
0.007063439 -0.008528769 0.0077573843 0.0030599516 0.013955394 0.006331876 0.006659027 -0.00029114226
0.0018253326 -0.002451919 0.010318076 0.012605062 0.00080196187 -0.0049797595 -0.009257118 -7.999028e-06

fc1.bias f4 [2]
00000000: 793d 47bc bffa d63c
-0.012160652 0.026242612
