api/cnn_weights.pth (torch, 134640 bytes, 10 tensors)

conv1.weight f4 [8, 3, 3, 3]
000000 80 b8 d4 bd a8 38 92 3c dd 5e ff 3d b3 27 5a bc
       -0.10386753 0.017849281 0.124692656 -0.013315129
000010 58 4a 89 be c4 a6 6e be 0d 83 54 3d 53 6a 52 be
       -0.26814532 -0.23305804 0.051882792 -0.20548372
000020 a3 18 11 be 48 1c d5 bd 93 fd 33 3e e4 fd 8d bc
       -0.14169554 -0.10405785 0.175772 -0.017332979
000030 d8 63 17 3e 41 90 87 3b 8a 2f 75 bd 0c 61 53 3d
       0.14784181 0.0041370695 -0.05985979 0.051606223
000040 7d 37 07 be 34 32 6a bc e1 c2 31 3e 05 9a 40 3e
       -0.13204761 -0.014294196 0.17359497 0.18808754
000050 94 46 01 3e 16 6b 18 3e e8 a2 5d 3e 3e 0f 88 bd
       0.1262458 0.148846 0.21644175 -0.06643532
000060 85 3d 40 3d f0 c0 4f 3e 8c 6b 41 3e d9 10 14 3e
       0.04693367 0.20288444 0.18888682 0.14459552
000070 b4 7e 90 bc 83 47 1a be c5 b3 32 be ac b6 33 be
       -0.017638542 -0.15066342 -0.17451389 -0.17550153
000080 65 8a ee bd a4 8b 47 be 36 d7 84 bc 66 c6 72 be
       -0.116474904 -0.19486862 -0.016215902 -0.23708495
000090 2c 86 72 bd 34 b9 d0 bd c3 84 fa bd 1e 5e 1e be
       -0.059209988 -0.10191575 -0.122323535 -0.1546559
0000a0 3d 89 f8 3c eb 70 1a be 0b 85 1c 3e e4 49 73 be
       0.030338878 -0.15082137 0.15285127 -0.23758656
0000b0 98 62 92 3c 99 0c 7d 3d f2 0b dc bd 00 7e 14 3e
       0.017869279 0.061779592 -0.10744466 0.1450119
0000c0 38 00 a3 bd 98 c2 bd bd a7 4b 3a be be a7 69 be
       -0.07959026 -0.092656314 -0.18192922 -0.22817895
0000d0 64 f5 36 bd 6d 32 26 be ad 77 23 3e 66 84 2c bd
       -0.044667616 -0.16230173 0.15963621 -0.042118452
0000e0 bb 61 f1 bd 37 39 fb 3d 17 0f 12 bd 09 f4 a8 3d
       -0.11786219 0.12266772 -0.035658922 0.08249671
0000f0 02 f2 09 3e 21 4e 67 3d 80 75 b2 3d 06 70 04 be
       0.13471225 0.056470994 0.087138176 -0.12933359
000100 58 5f cc bd ee 39 11 bc f4 a1 3f 3e 53 5f dd 3d
       -0.09979123 -0.008863909 0.18714124 0.10809197
000110 38 6a 7e bd 32 90 83 3e 2a a2 7e 3e 34 d0 b9 3d
       -0.062113017 0.2569595 0.24866548 0.09072915
000120 75 aa 35 3d 69 bf 34 bd fc 71 9a bd 24 7a a6 3b
       0.044352014 -0.044127855 -0.07541272 0.0050804783
000130 20 5c 0f bd e9 e1 05 bb 41 e7 32 3e d2 85 7d 3d
       -0.034999967 -0.0020428842 0.17471029 0.0618952
000140 b9 be 08 3d 0c a8 21 bc b1 5e 53 be 03 b9 03 bc
       0.033385012 -0.009866726 -0.2064159 -0.008039716
000150 16 04 31 3d 34 38 08 3e 0d cd 08 3e 1d 89 76 3e
       0.043216787 0.1330269 0.1335947 0.24075742
000160 89 49 3a 3d 83 39 01 3d ca f3 fd ba 32 22 65 be
       0.045480285 0.031548988 -0.0019375023 -0.22376326
000170 6e 77 6a be 04 30 c3 bd c7 88 1e bc 86 1b 66 3d
       -0.22897121 -0.09530643 -0.009676165 0.056178592
000180 e2 8c 72 3e 77 d4 d2 3d 3b dd 18 be ae 26 91 be
       0.23686555 0.10294431 -0.14928143 -0.28349823
000190 40 d3 ef bd 1c 00 b0 be 6c b3 82 3d 20 a9 24 be
       -0.117102146 -0.34375083 0.06381878 -0.16080141
0001a0 71 29 fe 3c 04 16 46 3d e3 d4 96 3d 94 7f 5d 3e
       0.03102562 0.04836084 0.07364824 0.21630698
0001b0 11 41 58 3c bd 2c a4 bd 4e 98 66 3e fc 5c 4c 3e
       0.013199107 -0.08016346 0.22519037 0.19957346
0001c0 d0 46 9c ba 18 dd 22 3e ab 66 73 3d b3 21 02 3d
       -0.0011922959 0.15904653 0.059424084 0.03177042
0001d0 e0 31 6c 3d f6 bf 0c 3e d9 c7 16 be f3 4a 68 bd
       0.057664752 0.13745102 -0.14724673 -0.056712102
0001e0 9f e9 07 3e 18 ae a3 bc f4 57 99 bd 26 af 73 be
       0.13272713 -0.019980475 -0.07487479 -0.23797283
0001f0 f9 e7 16 be 28 60 65 38 a1 c0 53 3e 81 97 3d 3e
       -0.14736928 5.4687407e-05 0.20678951 0.18514825
000200 59 89 86 3d 90 e4 56 3d 98 08 79 bc d1 aa 17 3e
       0.06569166 0.052464068 -0.015199803 0.14811255
000210 c4 c2 7d bc c8 c1 58 be e4 51 ac bd 31 b4 33 bb
       -0.01548833 -0.21167672 -0.08414057 -0.0027420635
000220 23 49 21 3e c9 3d 33 be f9 ae 5c be c4 4a 01 be
       0.15750556 -0.17504038 -0.21551122 -0.12626177
000230 29 38 34 be a0 61 08 be 62 f2 d2 bd ab 58 e3 bd
       -0.17599548 -0.13318491 -0.10300137 -0.111008964
000240 94 f0 b0 bd 75 b4 9f bc 40 bd 0a 3e 79 9e 32 3e
       -0.08639637 -0.019495228 0.13548756 0.17443265
000250 03 45 fb 3d f9 d7 3b 3e e5 75 29 3c cd 6b de bd
       0.12269022 0.18344106 0.01034305 -0.10860405
000260 4e a2 0a 3e 00 10 0c 3e d0 6b 1d 3e 94 09 46 3e
       0.13538477 0.13677979 0.15373158 0.19339591
000270 ca c7 fa 3d e6 dc 11 3d 17 f0 c7 bd b1 5c 47 3e
       0.12245138 0.035611056 -0.097625904 0.19468953
000280 64 9a c0 bd 77 59 46 3d dc 50 1b 3d 2a 44 20 3e
       -0.09404448 0.048425164 0.03791891 0.15651003
000290 9d ac 15 be b6 d8 57 3d 0b e0 c1 3d 4f 04 45 3e
       -0.14616628 0.052696906 0.09466561 0.19239925
0002a0 e9 e3 81 3d 63 36 21 be 39 9d 8d 3d 4b 13 8d bc
       0.063422985 -0.15743403 0.069147535 -0.017221114
0002b0 a9 d3 8a bc b3 ea 0a be d0 92 0c 3e 05 13 8e 3c
       -0.01694663 -0.13566093 0.1372788 0.017343054
0002c0 e7 76 f8 3c 35 cb e5 3d 59 3b d3 bc 71 45 00 3e
       0.030330135 0.11220399 -0.025785135 0.1252649
0002d0 b3 41 db bc 8c 65 25 bd a2 43 98 3d 0d 83 97 bd
       -0.026764726 -0.040380046 0.07434775 -0.07398043
0002e0 aa 64 a0 3d 3c 46 b5 3d 0e 29 c5 3d cd 30 18 bd
       0.078317 0.08851287 0.09626971 -0.037155915
0002f0 81 b9 fe 3d 05 8e 0c be e5 92 44 be 6b dc 93 be
       0.12437726 -0.13726051 -0.19196661 -0.28879103
000300 d7 5f 23 be 8d f6 25 be e9 9b f0 bd 85 84 4b bd
       -0.15954529 -0.16207333 -0.117484875 -0.049686927
000310 6e e9 25 be 10 a8 fa bd 9f be 22 3e e3 dd 1d 3e
       -0.16202328 -0.12239087 0.15893029 0.15416674
000320 a5 69 9a bd 2b 3c 5b bd 6f 8f ba 3d d6 9d e0 3d
       -0.07539681 -0.053524178 0.09109389 0.10967605
000330 1c 30 ca 3b 6e 9b 93 bd fc 0e a5 3d b4 2f c0 bd
       0.006170286 -0.0720738 0.08059499 -0.09384099
000340 5a ba f3 bd c4 97 65 bd 4b 6a 65 3e b0 24 d1 bd
       -0.11900778 -0.056052938 0.22403829 -0.10212076
000350 1a 40 6b 3d d6 3a 2f 3e 26 dc 22 3e ae 58 33 3e
       0.05743418 0.17112288 0.15904292 0.17514297

conv1.bias f4 [8]
000000 8d 46 4b 3d ac 6c aa 3d 44 56 07 be 9b 5a 2b bc
       0.04962783 0.08321509 -0.13216501 -0.010458614
000010 2a 5d 5d be d9 1e 08 3e b5 a6 21 3e b1 cc ce 3d
       -0.2161757 0.13293017 0.1578625 0.100976355

conv2.weight f4 [16, 8, 3, 3]
000000 51 e3 24 be 7d 6b 8f 3c 2d b5 dc bc ae 8e 3d be
       -0.1610234 0.01750731 -0.02694186 -0.18511459
000010 62 0c cf bd 8b 33 22 be 7c 54 b8 bd e3 5c 34 be
       -0.10109784 -0.15839975 -0.09000489 -0.17613558
000020 55 15 71 be 45 5a a4 bd f5 12 99 bc 7e b4 a4 3d
       -0.23543294 -0.0802503 -0.018685797 0.08042239
000030 40 73 84 3d 73 14 2e 3b d7 60 1f 3e 92 12 f4 bc
       0.06467295 0.0026562482 0.15564285 -0.029794011
000040 5a d2 a6 bd d9 b3 0a 3e 13 ca 0d bd f2 c5 6a bd
       -0.0814559 0.13545169 -0.03461654 -0.05731768
000050 7f 36 37 3c f0 67 5f bd bc 4d 94 3d 5b 2d a5 bd
       0.0111824265 -0.054542482 0.07241389 -0.080652915
000060 78 26 e1 3d e8 6d e5 3d b4 3b 9c bd ae 3b 1b be
       0.109936655 0.112026036 -0.07628575 -0.15159485
000070 0c 16 7d be b6 79 61 be 0c 87 66 bc 1a 20 36 3c
       -0.24715441 -0.22019085 -0.014070284 0.011116052
000080 75 91 71 3d 6e 44 36 3e 07 63 2f 3d d3 90 c2 3d
       0.05897661 0.17799541 0.04281905 0.09500279
000090 b7 66 08 3e 94 f2 e1 3d b1 2b 28 3e 97 5e 28 3c
       0.13320433 0.11032596 0.16422917 0.010276458
0000a0 44 b6 d2 3c 34 56 7d 39 de f2 09 bc e8 2c e4 bd
       0.025721677 0.00024160073 -0.00841972 -0.11141378
0000b0 22 fe d3 bd 14 c4 20 be 5b 74 a5 3c a6 69 e1 3b
       -0.10351206 -0.15699798 0.020197084 0.0068790494
0000c0 ba cb 34 be c8 17 26 be 09 9f 94 3b 27 cb 48 be
       -0.1765584 -0.1622001 0.00453556 -0.19608746
0000d0 7b 1c 4f be 47 3b 67 be 06 82 d0 3d 79 b0 42 3c
       -0.20225708 -0.22581206 0.1018105 0.011882895
0000e0 58 20 2f 3d 9c 2d 80 bd 42 82 91 bd f1 ec d7 bd
       0.042755455 -0.06258699 -0.07104923 -0.1054324
0000f0 f2 4d c3 bd 9c 04 d1 3d 54 cb 40 bd 61 16 19 be
       -0.09536351 0.10205957 -0.04706891 -0.14949943
000100 e2 e1 d4 bd 25 66 f5 bd 92 15 e8 3d 80 83 71 3d
       -0.10394646 -0.11982373 0.11332239 0.0589633
000110 71 88 2c 3d b5 aa 36 3d 11 5f 3f 3c 58 13 e3 3d
       0.04212231 0.044596393 0.01168038 0.11087674
000120 d4 e9 9e 3c 5d 7d 93 3d 81 d2 88 3d 7c d1 63 3d
       0.019398607 0.072016455 0.066807754 0.0556197
000130 dd d5 a8 3d af 5c 03 3d 7f 2b 44 3d 6f d3 5e 3c
       0.08243916 0.03207081 0.047893044 0.013600214
000140 4b c0 0d 3e 81 e4 7f bb 34 c9 df bd 71 9b de 3d
       0.13842885 -0.003904611 -0.10927048 0.10869492
000150 aa 3e 08 be 28 da 8b 3d 0d 8b 75 bd ca 10 02 3d
       -0.13305154 0.068287194 -0.059947062 0.031754293
000160 4c 73 ce 3d a6 aa ab 3d 92 28 3f 3e 73 7e c1 bd
       0.10080585 0.08382158 0.1866782 -0.094479464
000170 ef 3c 62 3d 50 9b 5c 3c a9 d0 94 3d dd bf fc bd
       0.055233892 0.013464764 0.07266361 -0.123412825
000180 66 0f 18 3e 9b 70 8f 3d 0d 13 0b be 95 71 5a 3d
       0.14849624 0.070039 -0.13581486 0.053330977
000190 af a4 c4 3d ed 87 fd bd c3 5b 8c bd aa 1d 43 3d
       0.096017234 -0.123794414 -0.0685344 0.04763571
0001a0 5a c4 39 be 6f 78 0d be 48 f0 b1 3d 51 11 ac bd
       -0.18141308 -0.13815473 0.08688408 -0.0840174
0001b0 cb 94 37 bd 42 34 2e be 25 04 b0 bd 03 17 39 3e
       -0.044819634 -0.17012122 -0.085945405 0.18075185
0001c0 68 cb ed bd 04 5b 19 be 8b a5 f5 3d 99 a2 ac bd
       -0.11611062 -0.14976126 0.119944654 -0.084294505
0001d0 e5 15 cb bd eb 83 b9 3d 8c 27 46 3b 54 f9 0a 3e
       -0.099162854 0.090583645 0.0030235974 0.13571674
0001e0 88 b1 06 3e 7b 18 56 3d 9d 0e 14 3e b5 b4 59 3d
       0.1315366 0.05226944 0.144587 0.05315085
0001f0 68 c0 5b 3c cc 9c e7 3d af ac 6a bd f0 0c eb bd
       0.013412572 0.113092035 -0.05729359 -0.11477077
000200 a1 02 f8 bd 57 2b 88 3d 65 ac 18 be 9d 72 d4 bc
       -0.121098764 0.066488914 -0.14909513 -0.025933558
000210 e1 87 7f 3d 51 48 9a 3d 4d 25 11 bd d6 73 a5 3d
       0.062385444 0.075333245 -0.035435963 0.080787346
000220 7b 49 2a bd 0c 11 c7 3d fb d8 38 3c c5 8f 9a bc
       -0.041573983 0.09720048 0.011282201 -0.018867383
000230 34 80 09 bd 6d 5c d4 bd 4a fa 3e 3e 36 3b 40 3e
       -0.03356953 -0.10369191 0.18650165 0.18772587
000240 4c 29 b3 3d bc be 0f be 0b 30 71 3c 35 37 a4 bd
       0.08748111 -0.14037603 0.014720927 -0.080183424
000250 c8 a1 04 be ab 50 96 3c 58 9f c7 3d 36 87 a5 3d
       -0.1295234 0.018349012 0.09747189 0.0808243
000260 c5 08 ea 3d c7 57 d5 bb 1c 96 02 3e 07 0e 62 bc
       0.11427454 -0.006510708 0.12752575 -0.01379729
000270 fc e7 7a bd 28 7f 32 3d 2d 40 bc bd c5 aa ea 3c
       -0.061256394 0.043578297 -0.09191928 0.028645882
000280 62 0c e8 bd 4d 58 29 bd 40 b2 d4 3a c1 75 f6 bd
       -0.11330487 -0.041343976 0.0016227439 -0.120341785
000290 51 d7 52 3b 90 15 a7 bc 33 b0 87 3d 1f 62 ec 3d
       0.0032171796 -0.020396024 0.06625404 0.115421526
0002a0 bd a2 05 3e 4f 30 e7 3c 3e f5 f7 3d b1 fe f8 3b
       0.13050361 0.028221278 0.12107323 0.007598721
0002b0 ad 79 4a 3d f7 0a 20 bd e9 78 e7 bd b7 3b af 3d
       0.049432445 -0.039072957 -0.11302359 0.085563116
0002c0 bf fc d1 bc 2b 5c 13 bd 6d 1c 82 bc 48 a2 bd 3d
       -0.025633214 -0.03597657 -0.015882695 0.09259468
0002d0 fe 30 ed bd b3 cb f1 bd 22 28 12 be 51 b0 af 3d
       -0.1158161 -0.11806431 -0.14273122 0.085785516
0002e0 82 37 5e bc 23 28 ae 3c 78 19 41 3d e7 14 f9 3d
       -0.013563039 0.021259373 0.04714343 0.1216219
0002f0 48 db 1f 3e c4 7c 7a 3d cd db 11 be ec c0 bd bd
       0.15610993 0.061154142 -0.14244004 -0.092653126
000300 7d 33 db 3d 3f 2f 2d 3d 45 a9 ad 3b 67 00 c0 bc
       0.1070318 0.042281386 0.0052997195 -0.023437692
000310 ea d5 fe 3d 3d 8a 9c 3d 34 74 de 3c 41 82 45 bd
       0.124431446 0.07643554 0.02715502 -0.048219923
000320 4b a6 aa bd d2 9b ff bc 69 2d a4 3d a1 aa c9 3d
       -0.08332499 -0.03120223 0.08016474 0.09846998
000330 96 7c ba bc 81 15 ca 3d 80 f8 00 3e e2 ba e8 3d
       -0.022764485 0.09867383 0.12594795 0.1136377
000340 15 06 20 3e ac 2f 5f bc 87 b1 aa 3b c4 93 5a 3d
       0.1562732 -0.013622206 0.005209151 0.053363577
000350 6a e8 82 bd ae d7 06 3e 4a eb 96 bd 79 5a 82 3c
       -0.06391986 0.13168213 -0.073690966 0.015912281
000360 94 36 8b bd 5a 7a 2d 3d f9 4a ed 3c ea 5d a4 bd
       -0.06797519 0.04235301 0.028966414 -0.08025725
000370 a0 77 41 bd ad 9f 93 3c 7f 06 0a be 5b 5d a6 3c
       -0.047233224 0.018020475 -0.1347904 0.020308187
000380 ac d7 3d bc 96 ea e9 bc 9d d1 b4 bd 20 0f 81 bd
       -0.011587065 -0.028554242 -0.08829043 -0.06301713
000390 18 81 c3 3b 73 b1 83 bc af 9c 5a bd 84 50 c3 bd
       0.005966317 -0.016075825 -0.05337208 -0.095368415
0003a0 11 c3 c4 bb df c4 63 bd e2 ba d7 bd 5d aa 39 3d
       -0.006004699 -0.055607673 -0.10533692 0.045328487
0003b0 e3 5f 18 bd 5e c2 9c 3d 3b 86 92 3d 67 ef 12 3d
       -0.03720082 0.0765426 0.07154509 0.035872843
0003c0 54 b8 bd bd 6f ce 82 bd aa 1a bd 3c d3 d1 e9 3c
       -0.092636734 -0.0638703 0.023084003 0.028542435
0003d0 ae 60 0a bd 86 31 5d bd e8 4f 01 be e2 52 2a bc
       -0.033783607 -0.054002307 -0.12628138 -0.010395737
0003e0 f7 7b e2 bd 5a e4 ff 39 e3 1a da 3d 90 ec 43 3b
       -0.11058801 0.00048807525 0.106496595 0.002989564
0003f0 5b 4f ae bd e3 56 ce bd 36 df db 3c 3d d9 65 3d
       -0.085112296 -0.10075166 0.026839834 0.056115378

conv2.bias f4 [16]
000000 5b 0e 01 3c 8f 05 12 be 8e 69 94 3d 19 00 93 bc
       0.007876958 -0.14259933 0.072466955 -0.017944383
000010 d1 f6 04 be 93 03 8a 3d 46 03 c1 3c 56 bc 32 3e
       -0.12984778 0.06738963 0.023561131 0.17454657
000020 8b 46 17 3e 87 50 01 3e 98 b4 0b 3e b3 b4 1b be
       0.14773004 0.12628375 0.1364311 -0.1520565
000030 76 de d0 bd 3c 20 8b bd 35 8c bb 3d e7 90 ef bd
       -0.10198681 -0.067932576 0.09157602 -0.1169756

conv3.weight f4 [32, 16, 3, 3]
000000 73 36 8b bd 21 b8 e7 bc 75 bc 8d 3d a4 ea 13 be
       -0.06797495 -0.028286042 0.06920711 -0.14444977
000010 ca 3c a9 3c fc 40 cd 3d 9f 3f c1 3b 6b 77 d8 bc
       0.02065887 0.100221604 0.005897477 -0.02642413
000020 83 cb 43 3c ef 43 93 bd d6 3a 0a 3d 30 ec b3 bd
       0.011950376 -0.07190692 0.033747517 -0.087852836
000030 c8 31 c7 bd 82 d5 d7 bd f6 c2 b3 bd 16 e9 c5 bd
       -0.09726292 -0.1053877 -0.0877742 -0.09663598
000040 56 e8 54 bc 1b 84 75 3d 99 5e 29 3d fd 52 20 bd
       -0.012994846 0.05994044 0.04134998 -0.039141644
000050 e4 a2 8b bd fe 39 ca 3d 4b 4b 23 bd 9a a0 a0 bd
       -0.06818178 0.098743424 -0.039866727 -0.07843132
000060 11 03 1e 3a 14 8c 94 bc 9d 68 83 3d 5e 0e 7f bd
       0.00060276786 -0.0181332 0.06416438 -0.06226956
000070 19 5f a4 3d dd 50 37 3c 89 e2 ca 3c fc 6a e2 bc
       0.08025951 0.011188713 0.024766224 -0.027638905
000080 69 03 2d 3b f5 7c 39 bc f3 09 68 3c de 7f 84 3d
       0.0026399738 -0.011321296 0.014162528 0.06469701
000090 72 21 f0 3c f7 c5 ba 3d d5 62 38 bd 94 ea 6f 3d
       0.029312823 0.0911979 -0.04501613 0.05857332
0000a0 18 95 fa 3b 32 04 7a bd 04 c3 b0 bd 44 31 7c 3c
       0.007647168 -0.061039157 -0.08630946 0.015392605
0000b0 5f 28 c8 3d ee d5 67 3d 41 0e e7 3c 8f 45 98 3d
       0.09773325 0.056600504 0.028205039 0.07435142
0000c0 d0 69 ac bd 31 9a 17 3d e6 f2 5a 3d f5 fd c8 bd
       -0.0841862 0.037012283 0.053454302 -0.098140635
0000d0 7b 4d 8d bd 18 0f d6 3d 71 12 a8 bc 07 15 02 3d
       -0.06899544 0.10452098 -0.020516606 0.031758334
0000e0 82 dc 06 be 07 65 88 3d 3d e1 48 bd fe 7c 0a 3c
       -0.13170055 0.066598944 -0.04904293 0.008452652
0000f0 f3 29 8a bc b9 1e b4 bd 6e 6b b0 bd 12 96 df 3d
       -0.016865706 -0.087949224 -0.086142406 0.109172955
000100 f0 8d 08 3e 57 d3 24 3e fd 42 6f bd e3 05 9c bb
       0.13335395 0.16096245 -0.058413494 -0.004761444
000110 7d 9b 04 bd d2 cb 3f 3d 25 dc 0b be 76 77 ae bd
       -0.032374848 0.046825238 -0.13658197 -0.08518879
000120 c1 71 93 3d 85 53 c2 3c 72 ac f2 3b 7d 2e f9 bd
       0.07199431 0.023721466 0.007405811 -0.1216707
000130 3d 12 80 bd f9 6a b4 bb 25 04 da bd 40 4f f5 bc
       -0.06253479 -0.005505916 -0.10645322 -0.029945016
000140 df e1 b6 bc f2 7b c8 bd 22 c7 33 bd be 60 a9 3d
       -0.0223245 -0.09789266 -0.04389108 0.08270405
000150 5e 37 32 be 30 b6 b5 3c de d9 da 3d 1d 06 c5 3d
       -0.17403933 0.0221816 0.10686086 0.09620307
000160 01 5a 40 3d 76 2f bf 3c 49 a9 81 3d 74 49 d4 3b
       0.046960834 0.02333806 0.06331117 0.006478483
000170 3a b2 89 bc fe 7f 69 3d 72 44 7b bc 0a 94 33 3d
       -0.016808618 0.05700683 -0.015336143 0.043842353
000180 df 9e 14 bb 3a 01 ce bd ca fa f8 bd ac db 6c bd
       -0.0022677702 -0.10058828 -0.12157209 -0.057826683
000190 1c 1a 47 ba 0e 24 9a bc 47 8e f6 bd 91 f8 b1 bc
       -0.0007595138 -0.01881602 -0.12038856 -0.021724971
0001a0 c7 81 58 3d f9 5f c6 3d b2 36 3d bd 00 c5 33 bd
       0.05285814 0.09686274 -0.04619474 -0.043889046
0001b0 df 25 e1 3d 6b 63 0e bd 91 16 f2 bb 24 93 9f 3b
       0.109935515 -0.03476278 -0.007387944 0.0048698355
0001c0 2d 9a 9b bd eb 44 2d bd 56 20 11 bd da 6e 4c bd
       -0.07597766 -0.042302053 -0.03543123 -0.049910404
0001d0 36 3a c1 bc 09 8b 6f bc 95 96 f3 bc 8f ef ae 3d
       -0.023587327 -0.014620551 -0.029734889 0.08541786
0001e0 a5 30 83 bd b4 20 3c bd f4 87 aa 3c 2a 8a b9 bd
       -0.064057626 -0.045929626 0.02081678 -0.09059556
0001f0 02 67 41 bd 06 cd b6 3d 8f cd e1 bd ca ec 1d bd
       -0.047217377 0.08925824 -0.11025535 -0.038555898
000200 fa f6 26 3d 25 9c 29 be 8a 6d a7 bd b3 b0 ee bb
       0.04076288 -0.1656347 -0.0817519 -0.007284248
000210 3b ae a2 bd 32 43 05 3d c6 60 b5 3b ad 34 d8 3d
       -0.07943388 0.032534786 0.005535218 0.10556922
000220 c0 a0 26 bd 4c bb a6 3c 91 9e c7 bc c6 c9 a0 bd
       -0.040680647 0.020352982 -0.024367603 -0.07850985
000230 f9 c8 66 3d 09 3b 9a bd c4 43 0f 3c 55 53 c4 bd
       0.056344006 -0.07530791 0.008744184 -0.09586207
000240 98 02 38 be a9 49 63 bd 0b cf 0c be 2e 9b d0 bd
       -0.1796974 -0.05549017 -0.13750856 -0.10185848
000250 61 3c 02 3c d1 03 64 bd 84 53 7d bd 7f 70 0a be
       0.007948966 -0.055667702 -0.061847225 -0.13519476
000260 61 45 35 be fb 34 f3 bc 1f 8e d2 3d 01 9f 3a bd
       -0.17702247 -0.029688349 0.10281014 -0.045561794
000270 4e ff 5f 3d 05 ca 51 3d 3e 3a 44 bc d4 b8 ed 3d
       0.054686837 0.05121805 -0.011976777 0.11607519
000280 c1 57 10 3d a9 34 53 bd 9c d7 df 3d 4c 54 11 3d
       0.03523994 -0.051563893 0.10929796 0.035480782
000290 ce 9a 46 bd a4 1b 90 3d db 96 d3 bd 70 bd 04 be
       -0.048487477 0.07036522 -0.10331508 -0.1296289
0002a0 cb 3b a7 bd ad c8 c1 3d 1d 71 9f 3d a5 b7 4f bd
       -0.081657015 0.09462104 0.077852465 -0.050712246
0002b0 e2 0d 10 3a 97 25 80 bd 0a 87 51 bc ec 47 5a bd
       0.0005495233 -0.0625717 -0.0127885435 -0.053291246
0002c0 5b 1a 81 bd bd a9 02 3c 9a 5e 0a 3c e2 23 59 3d
       -0.06303855 0.007975039 0.008445406 0.053012736
0002d0 4c c1 ec 3d 3b bd c4 3d ad 7c 23 3d 05 7e a4 3d
       0.11560306 0.09606405 0.039913822 0.08031849
0002e0 c6 75 95 bd f4 19 d5 bc d2 ce 01 be fb fe 40 bc
       -0.07297854 -0.026013352 -0.12676552 -0.011779542
0002f0 7d ef a2 3c 7d 0c a3 bd 13 1a cb bd 01 33 00 bd
       0.019889588 -0.07961366 -0.09917083 -0.03129864
000300 fd 1d 97 bd 98 3f 8e ba 43 c7 ea 3d e0 80 93 bb
       -0.07378767 -0.0010852693 0.114637874 -0.004501447
000310 05 e2 11 bd 04 83 04 3d ce 2d d3 bc f0 44 53 3d
       -0.03561594 0.03235151 -0.025778677 0.051579416
000320 52 bc 9a bd 28 26 5b 3d 69 66 e2 bd 31 3e dd bc
       -0.075554505 0.053503186 -0.110546894 -0.027007194
000330 8e 89 7d 3a 16 2c 1f bc 97 4d c1 3d 3e f3 3f bc
       0.00096716813 -0.009715101 0.09438627 -0.011715708
000340 58 2b 01 3d 22 3b c9 bc 46 b0 8a bc 09 72 ac bd
       0.031535476 -0.02456433 -0.016929757 -0.08420188
000350 a8 7f 82 bc dd 8b c3 3b d1 fd 53 3d 49 79 b1 3d
       -0.015930012 0.0059676007 0.05175573 0.086657114
000360 1a 2d d6 bd 4e fd 97 3c 42 0d d1 3b d1 34 ef bd
       -0.10457821 0.018553402 0.0063797543 -0.11679996
000370 2f 0a 08 bd 93 ea 13 bc 98 3f b4 3c 13 ca 52 bd
       -0.033212837 -0.009028095 0.02200298 -0.051462244
000380 af 70 49 bc 58 7a dd bd 22 56 ca 3c 21 29 c4 3d
       -0.012294932 -0.10814351 0.024699274 0.09578157
000390 d6 f5 81 3d d0 90 be 3d 68 91 d6 3d 8a 52 31 3e
       0.063457176 0.093049645 0.10476953 0.17316642
0003a0 26 cd 74 3d 84 19 00 bd ba 39 db bc 5f 5b 00 bd
       0.059765957 -0.031274334 -0.026760925 -0.03133714
0003b0 a7 df fc bc 2e 2e cd bc 19 5f 9a bb 1f dd 47 bd
       -0.030868364 -0.025046434 -0.0047110436 -0.048794862
0003c0 c4 f3 1a be 2e 05 4e bd 05 41 9b bc 7a fa cb ba
       -0.15132052 -0.05029791 -0.018951902 -0.0015562319
0003d0 0a f9 05 3d 3b 5d 09 3c 5d da 6b 3c e0 2a e9 3d
       0.032708205 0.008384044 0.014395324 0.11385131
0003e0 ab 32 a9 bc 8c 56 59 bc 07 ac ec bd 56 87 ee bd
       -0.020654043 -0.013265263 -0.11556249 -0.11646907
0003f0 8c a1 13 3c 8e db 59 bd 73 e0 7c bd 82 b6 b5 bd
       0.009010684 -0.0531879 -0.06173749 -0.08872701

conv3.bias f4 [32]
000000 6c 6e 28 3c e7 63 f4 bd df df b9 bc 83 00 34 3b
       0.010280233 -0.11933117 -0.022689758 0.0027466125
000010 50 4c 0a bd 0a 01 42 bd 55 cf 97 bd 05 38 02 3c
       -0.033764184 -0.047364272 -0.07412592 0.007947926
000020 27 cb d0 bc 9a f2 da 3d d0 ff 6d bc 7b 74 08 be
       -0.025487496 0.10690804 -0.0145263225 -0.13325684
000030 4c be 71 bd 47 96 cc 3d 25 68 2e be 5c ad 87 3d
       -0.059019372 0.09989601 -0.17031915 0.066248626
000040 43 7b 83 3c 1b 80 ee bb ae 13 3b 3c 2d 1b 9b 3d
       0.016049987 -0.007278455 0.011418266 0.07573543
000050 39 a2 fc bd 1c 75 71 3d 7b 40 dd bd 3b cc d1 bd
       -0.12335629 0.058949575 -0.10803314 -0.10244032
000060 af 3b 22 3d f2 11 96 bc eb 19 ec 3d 60 0a 07 3d
       0.0396077 -0.018319104 0.11528381 0.03296888
000070 05 c8 69 3c b8 12 d1 3c fb 5a 5b 3c 0f fd a7 bd
       0.01426888 0.025521621 0.013388391 -0.08202564

conv4.weight f4 [64, 32, 3, 3]
000000 af 00 0d 3c f8 84 78 3d f4 5b 96 3d ba ef ac 3d
       0.00860612 0.060673684 0.073417574 0.08444162
000010 cf 4d ac bd 4c 19 85 bd 84 0f 13 3d b7 5f bd 3b
       -0.08413278 -0.064989656 0.03590347 0.0057792324
000020 b9 9a df bd ef 7f 43 3c ef d5 f6 bc 22 a8 02 be
       -0.10918183 0.011932357 -0.030131308 -0.1275945
000030 ab d7 b6 bd db d0 b2 bd 14 26 4e bd 0c 58 20 bc
       -0.08927854 -0.08731242 -0.050329283 -0.009786617
000040 f6 29 42 3c 59 76 63 bd e5 44 42 bc b0 65 6a bd
       0.011850825 -0.055532787 -0.011857246 -0.057225883
000050 21 97 26 bc 81 28 0c 3d 94 da 0f bd 72 ec 42 3b
       -0.010167868 0.034218315 -0.03512056 0.0029742983
000060 b5 d8 f7 3c 98 78 00 3d ef 3d 48 3d e7 91 ac bd
       0.030254701 0.031365007 0.04888719 -0.08426266
000070 11 25 5b 3d 48 b3 b3 bd 06 fa 30 bc 04 c3 04 3d
       0.053502146 -0.087744296 -0.010801798 0.032412544
000080 aa 26 86 bb 0d cd 27 bd 82 b3 68 3c 6a e3 f0 bd
       -0.0040939646 -0.040967036 0.014202954 -0.11762126
000090 5a 8b f8 bc b6 ef 08 bb a3 d2 ba 3c 09 1a 25 bc
       -0.030339886 -0.0020894832 0.022805518 -0.010077008
0000a0 bb 11 1d 3d 2f f3 59 3d ec b4 e4 ba 53 39 7c 3d
       0.038346987 0.053210434 -0.0017448938 0.061578106
0000b0 7d 35 ad bd 3c 13 87 3c b8 be fb 3a 5a 63 94 3c
       -0.08457468 0.016488664 0.0019206619 0.01811378
0000c0 c1 57 d7 bc c8 89 99 3c fb dc 43 3d 52 1f 0b be
       -0.026286962 0.018742457 0.047818165 -0.13586167
0000d0 7a 69 63 bd f8 13 91 bd 0e 16 ab 3c fe 40 04 3d
       -0.055520512 -0.07083887 0.02088454 0.032288544
0000e0 09 3f c7 bc 27 2f 8d 3c fc b3 d4 bb ce 0f 00 bd
       -0.02432205 0.017234398 -0.0064911824 -0.031265073
0000f0 dd 08 ec 3c 34 46 f8 3c 60 10 d5 3c 8b b9 7c 3d
       0.02881282 0.030306913 0.026008785 0.061700385
000100 dc 4c 7b 3d 5f e5 6d 3d 75 33 a8 bb 35 f1 56 3d
       0.061352596 0.058080073 -0.0051330873 0.052476127
000110 41 df 51 3d c2 e0 32 bd b9 5c db bc 68 56 ad bd
       0.051238302 -0.043671377 -0.026777612 -0.08463746
000120 e7 50 7a 3d 52 17 22 bd 21 10 7a 3d 52 de 91 3c
       0.06111231 -0.03957302 0.061050538 0.017806206
000130 f8 1a 17 be 3e 6e 28 bd c4 66 19 3d f0 f4 c3 bc
       -0.14756382 -0.04112076 0.03745152 -0.023920506
000140 4b 20 a3 bc d7 60 5b bd 22 0f 74 3d eb cf 8b 3d
       -0.01991286 -0.05355915 0.059584744 0.068267666
000150 48 1e ba bd 92 76 95 bc 29 96 9d 3d e5 09 0c be
       -0.09087807 -0.018245015 0.076946564 -0.1367565
000160 cc d7 e3 bd 57 bb 9a bd f9 c8 07 bd 3d 42 72 bd
       -0.11125144 -0.075552635 -0.033150647 -0.0591452
000170 5a 3b ab bd 89 f0 9b 3c 27 98 29 bc ee 93 b6 bc
       -0.0836093 0.019035595 -0.010351217 -0.022287335
000180 1b 6b 74 bd 51 b0 c4 bd ab 2d e4 bc ff fd 5a bc
       -0.059672456 -0.09603942 -0.027853807 -0.013366221
000190 95 70 1b bd 31 90 b0 3c 7c d8 33 bb 56 36 55 bd
       -0.037949163 0.02155313 -0.0027442267 -0.052053772
0001a0 62 f5 81 bb b5 63 ab 3d 89 f5 94 bc 8e 7c 3f bc
       -0.0039660195 0.08368627 -0.018183487 -0.011687411
0001b0 01 4d fb bc 72 7d 40 bd 48 a8 67 bd 72 27 a0 3c
       -0.030676367 -0.046994634 -0.05655697 0.019550059
0001c0 2b 4e be 3c 40 9a 37 3a 47 eb 0f 3d ac 2b 77 bc
       0.023230633 0.0007003881 0.035136487 -0.015086096
0001d0 ea 7f d0 bc 56 54 02 3d 67 fc c0 3d 9e 3f f9 3d
       -0.02545162 0.03181871 0.09423142 0.12170337
0001e0 06 43 72 bd 71 05 c5 bd 58 66 c9 bd b8 41 91 bb
       -0.05914595 -0.096201785 -0.09833974 -0.004432883
0001f0 4b 01 58 bd 3c 7f 1f 3d 16 51 2a 3c 13 4e 91 bd
       -0.052735608 0.0389397 0.010395309 -0.070949696
000200 c4 37 c3 bd 24 de 87 3d fe cc 13 3e 02 f7 24 3e
       -0.09532121 0.06634167 0.14433667 0.16109851
000210 b3 35 61 bc 6e 0a 59 3d 90 ad 5c 3d 08 47 a0 3d
       -0.013745713 0.052988462 0.05387646 0.07826048
000220 89 b6 cc 3d 6d c8 87 3c 39 ad 21 bd 65 84 ab 3d
       0.09995753 0.016575063 -0.03947184 0.08374862
000230 f6 16 19 3e 31 c0 eb bd 8f e3 b2 bd 51 6a 68 bd
       0.14950165 -0.11511267 -0.087348096 -0.056742016
000240 5a 7d 38 bd f3 9a 00 3d 17 99 b6 3d 21 84 30 bd
       -0.04504142 0.03139777 0.08915918 -0.043094758
000250 3d 1f 16 bc c8 53 52 bd e3 48 fa bd a1 ec 17 be
       -0.009162721 -0.05134943 -0.12220933 -0.1483636
000260 ed ba d3 bd 51 2e 57 3d c1 4b ae bc e2 ea e5 3c
       -0.10338388 0.052534405 -0.021276357 0.028066102
000270 fa cb 2b bd e3 4f b3 bd 8f 35 74 bd e9 4f d8 3c
       -0.041942574 -0.087554716 -0.05962139 0.026405292
000280 89 bd 62 bd e3 c2 18 bd 72 11 43 bc 02 9a 11 3d
       -0.055356536 -0.037295233 -0.011906015 0.035547264
000290 f0 f1 e3 3d 70 21 84 3b 4d 5c 5e be 22 0d e3 bd
       0.1113013 0.0040323064 -0.21714897 -0.11086489
0002a0 28 cd 18 bd c9 ec a9 bd 93 75 3d bc 4e f5 4b 3c
       -0.037305027 -0.08297116 -0.011563676 0.012448622
0002b0 32 26 9b 3d f8 70 83 3d bc e9 64 bc a5 94 6a bd
       0.075756446 0.064180315 -0.013971742 -0.057270665
0002c0 8a 23 eb bc f6 1c 17 3e 27 4b 89 3d ff ca 38 bd
       -0.02870347 0.14757141 0.06703787 -0.045115467
0002d0 1f 5f 2f bc 2b 8c 19 be b1 46 5d bd 61 6a 72 3c
       -0.010703831 -0.14994876 -0.054022495 0.0147958705
0002e0 e8 ae 2b bd 92 66 85 bc da 2c cd 3d 8d 24 7f 3d
       -0.04191485 -0.01628426 0.100183204 0.062290717
0002f0 1e 4b 30 3d 38 c9 60 bc 54 0b 0f bd a0 ea 11 bc
       0.043040387 -0.013719849 -0.034922913 -0.008906037
000300 93 79 43 bd 53 49 76 bd 6f a4 c2 bc 07 13 f9 bd
       -0.047723364 -0.06012852 -0.023760049 -0.12161832
000310 8b 09 0a be 62 23 aa bd 31 fd c5 bb 16 10 7a bd
       -0.13480203 -0.0830753 -0.0060421457 -0.061050497
000320 3e 81 cd bd 15 1e b9 bc d6 37 0a 3d 13 30 aa bd
       -0.100344166 -0.022597352 0.033744656 -0.08309951
000330 87 18 7d bc f5 02 1c 3d 37 11 44 bb 8b 25 be bc
       -0.015447742 0.038088758 -0.0029917487 -0.023211261
000340 27 95 1d bd 30 ae 18 3d 3d f5 61 bd ac 67 9b 3c
       -0.03847232 0.037275493 -0.055165518 0.018970333
000350 07 36 2b bd 57 8a 62 bd 1a 18 32 bd 24 0c cc 3c
       -0.04179957 -0.055307712 -0.043480016 0.024908133
000360 01 0e 16 3d c8 e8 75 3a 44 9a ee 3c 8c cd 87 3d
       0.03663445 0.00093806954 0.029126294 0.06631002
000370 a9 d9 dc 3c c1 a7 1f bd c4 83 3c bc e0 fe 8c bd
       0.026959257 -0.038978342 -0.011506025 -0.06884551
000380 6a f5 73 bd c8 54 52 bd 14 be a8 3d e3 bd 8a 3d
       -0.059560217 -0.051350385 0.082393795 0.06774499
000390 98 a9 f5 bd 49 44 67 be 41 eb 52 be 6f 41 87 bc
       -0.11995238 -0.22584642 -0.20597555 -0.016510693
0003a0 02 3b 82 bd ca 46 0c bd 9f 38 0a bc c0 f3 79 3d
       -0.06358911 -0.034247197 -0.008436351 0.061023474
0003b0 e2 03 c7 3c 4f 89 ed 3b 86 f8 8e bc c3 ae 64 bd
       0.024293844 0.0072490345 -0.01745249 -0.05583073
0003c0 30 87 b3 3c 3c 64 b9 bd 59 75 06 bd f1 74 37 3c
       0.021915048 -0.09052321 -0.032826755 0.011197315
0003d0 32 39 01 3e 4b 00 05 3e a0 61 76 bd 87 6d 2c be
       0.12619475 0.12988393 -0.060151696 -0.16838656
0003e0 53 81 af bd f9 71 c8 3c 36 a3 6c bc 9a 05 51 bd
       -0.085695885 0.024468409 -0.014443209 -0.051030733
0003f0 fb 5b 66 3d 87 97 c2 3d f5 59 5b 3e 77 2e d0 bd
       0.056240063 0.09501558 0.21421035 -0.101651125

conv4.bias f4 [64]
000000 b8 8e e9 bb f2 81 3c bd 5e 79 37 ba 66 39 96 bd
       -0.007127609 -0.046022363 -0.0006998981 -0.07335167
000010 68 c4 8d 3d 04 42 e0 bc 6d 8c d3 3c 03 a6 ac bd
       0.06922227 -0.027375229 0.025823796 -0.08430102
000020 3f 86 55 3d d9 04 2c 3d 28 76 58 bd 4e 92 6f 3c
       0.05212998 0.04199681 -0.052847058 0.014622284
000030 c0 db 2c 3c a3 d1 2e 3c 77 87 1f 3d 95 90 de bc
       0.010550439 0.0106700985 0.03894755 -0.027168551
000040 7b 6b 18 3d 14 5a 89 3c 20 aa ce bb d5 1b 03 bc
       0.037211876 0.016766585 -0.0063069016 -0.008002241
000050 a8 9d 42 bd 72 09 4c 3d 88 f1 82 bc 49 20 a7 bd
       -0.047513634 0.049813695 -0.015984312 -0.08160455
000060 85 12 6a 3d 32 b0 c0 bc f3 bc 3b bd 60 1f c8 3c
       0.057146568 -0.023521516 -0.045834493 0.024429023
000070 99 cd 99 bc b4 7f 85 bd 73 0b 90 bd 06 84 7e 3b
       -0.018774794 -0.06518498 -0.07033434 0.0038836016
000080 62 4a 6a 3c 9f 6d 95 bb 4a c0 b7 3d 2e a5 0c 3d
       0.014299961 -0.004560187 0.08972223 0.034337215
000090 b2 e7 00 bd 14 51 bc bd 00 5e 0a 3c eb 6e 67 3d
       -0.031470962 -0.09195152 0.008445263 0.056502264
0000a0 6f 77 e1 3b 16 9e 34 3d d4 87 b5 bd bf ad a3 bd
       0.0068806927 0.044096075 -0.08863798 -0.07992124
0000b0 7e fe c2 3c 12 9c 5b bd 64 c1 39 bd b9 69 82 bd
       0.023802992 -0.053615637 -0.045350447 -0.06367821
0000c0 80 29 53 3d ae d5 9a bd 25 ba 4e bb dc b9 78 bc
       0.05155325 -0.075602874 -0.0031544056 -0.015181031
0000d0 24 60 91 3d 59 b5 f4 bd 53 96 53 bd 24 a8 a2 bc
       0.070984155 -0.11948652 -0.051657032 -0.019855566
0000e0 e3 9e 3f 3c 4f 1d f6 bc 19 12 86 ba 23 df 21 3d
       0.011695596 -0.030043272 -0.0010228782 0.03951944
0000f0 ae 63 1a bd 6a 47 69 3b b8 6c 98 3c 62 39 56 bd
       -0.03769272 0.0035595545 0.018606529 -0.05230082

fc1.weight f4 [2, 4096]
000000 40 29 48 3c da 38 52 bd 39 7b e6 bb 8f 45 1d 3d
       0.012216866 -0.05132375 -0.0070337323 0.038396414
000010 e7 5d 9d 3c c3 7e bf bc 99 1d 1e bd fe ab a2 bd
       0.019209815 -0.023375874 -0.038602445 -0.07942961
000020 aa c6 d3 bc 3b 93 07 bd 9d 17 86 bb af 79 23 bd
       -0.025851566 -0.033099394 -0.0040921704 -0.03991097
000030 22 cc a4 bb 1d f3 65 3d 8d 82 26 bd e6 3e 8b bc
       -0.0050292173 0.056140054 -0.040651847 -0.016997766
000040 f3 c9 0e bd 61 df 85 bd fa 8b 05 3b bc dc ac bd
       -0.034860563 -0.06536747 0.0020377622 -0.08440539
000050 2f a8 18 bd 0d 19 44 bd 73 1b bd bd f4 33 11 3d
       -0.037269767 -0.047875453 -0.09233751 0.035449937
000060 9c 1c f4 bc 28 a2 b2 bc 41 27 60 bd c0 90 91 3d
       -0.029798798 -0.021805838 -0.054724935 0.07107687
000070 42 da c4 3d d2 37 6b 3d 96 15 90 bc 8a e3 6c ba
       0.09611942 0.05742628 -0.017588418 -0.00090365915
000080 9c 30 48 3d 39 1b 35 3c 6b 24 40 3d 92 d8 01 3d
       0.048874483 0.011053854 0.04690973 0.03170068
000090 d2 4f 17 3d 8f 7e 5e bc 9c 0d f4 39 fb 4d 5d bc
       0.036941357 -0.013579979 0.00046549446 -0.0135073615
0000a0 3d 2d 74 3d a5 aa 56 3d 63 10 ea 3c 3c 93 a0 bc
       0.059613455 0.052408833 0.028572267 -0.019601457
0000b0 2c 13 0a 3d 35 21 ae 3d 6e f8 26 3d 99 b3 07 3d
       0.03370969 0.085024275 0.040764265 0.033130262
0000c0 6d d4 24 3c 91 b2 87 3c 1f f3 c7 bd 5f a2 d7 bd
       0.010060412 0.01656464 -0.097631685 -0.10529017
0000d0 e4 5f ed bd 45 bb bd bc 4c 2f 29 3c e0 d9 bd 3c
       -0.11590555 -0.023160586 0.010326218 0.02317518
0000e0 5a 59 9d bd 5c 19 c0 bd 31 43 01 be af ac e9 3d
       -0.07683058 -0.09379837 -0.12623288 0.1140989
0000f0 77 04 d9 3a 8a c5 f2 bc 3d f3 ff 3c 72 45 85 3c
       0.0016557117 -0.02963521 0.031243915 0.016268466
000100 f3 ce 74 3a dd 77 47 3c 41 1c aa 3c 7c ad b4 bb
       0.0009338699 0.012174574 0.020765426 -0.005513845
000110 59 36 b3 ba e1 5b 48 3c f1 13 27 3c 50 ca 03 3d
       -0.0013672813 0.012228937 0.0101976255 0.032175362
000120 e2 dd 80 3c ef 5a ab 3c aa 02 c8 3b 61 8d b0 3c
       0.015730802 0.020917384 0.006103833 0.02155179
000130 90 56 df 3c ba ae 0c 3d 1e 4d 60 3c df 88 f6 3b
       0.027262956 0.03434632 0.013690261 0.0075236405
000140 25 4c 9c 3c 23 0c 7e 3c 2d 60 10 3d 05 c6 dc 3c
       0.019079277 0.015505823 0.03524797 0.026949892
000150 fc a8 56 3b 54 5c a4 3c 00 56 e7 3b 19 7a 38 3c
       0.003275453 0.020063557 0.0070598125 0.011259579
000160 4c 3d c4 3c 48 cb 86 3a a3 72 01 3d 11 a0 84 3c
       0.02395501 0.0010283971 0.031603467 0.016189607
000170 21 27 32 3b 3e 4d c7 3b b3 6c 3c 3b 46 0e 8c ba
       0.0027183967 0.006082206 0.0028751313 -0.0010685406
000180 ed 73 ca 3c 5b 1c f1 3c 3b c8 e5 3c 06 8e c5 3a
       0.02471348 0.029432466 0.028049579 0.0015072234
000190 b6 cc bc ba 63 39 a9 3c 06 3b a6 3b fd 86 96 3b
       -0.001440427 0.020657247 0.005072954 0.0045937286
0001a0 3a 10 3b bb 80 0c 1c 3c f5 86 c4 3c 46 d9 23 3c
       -0.0028543607 0.009524465 0.023990134 0.0100005325
0001b0 26 96 c3 3b d2 f9 31 bc d3 44 54 bb 6e db 6f 3c
       0.005968827 -0.010862784 -0.0032389655 0.014639718
0001c0 41 8d 3d ba 1c 4c 9c 3c 0f 2f 39 3b ef 42 89 3c
       -0.00072308263 0.01907926 0.002825681 0.01675555
0001d0 16 fb 69 bc e5 2d 22 3b 03 68 95 bc a6 64 53 3b
       -0.014281055 0.0024746594 -0.018238073 0.0032256036
0001e0 13 5d 4f 3c d5 60 2c 3c c5 81 92 bb e3 e3 56 bb
       0.012656468 0.010521133 -0.004471036 -0.003278964
0001f0 d2 9d 22 3c 97 fd 0d bc cb 42 ff 3b b7 3f 89 3c
       0.009925323 -0.008666418 0.0077899448 0.016754014
000200 db fd b0 bc f4 9a 9a bb 41 07 8f 3c 9f db 2c 3c
       -0.021605423 -0.004718179 0.017459514 0.010550409
000210 84 09 90 3b 3f 36 4d 3c 44 03 61 3a 77 9e 92 bc
       0.0043956656 0.01252514 0.00085835555 -0.017897828
000220 0e bb c4 bc 28 d1 40 3b b1 99 0b 3c cf 91 6b 3c
       -0.024014976 0.0029421542 0.00852053 0.014378025
000230 b7 10 14 3d c6 fd 88 3c 95 b7 17 3d 53 51 bd 3b
       0.036148753 0.016722571 0.03704031 0.005777517
000240 bb 9c cf 3b 81 2e 28 bd e2 1e 04 3b e4 a8 b5 bb
       0.0063358224 -0.041059975 0.002016001 -0.005543815
000250 9b b2 ac bb 05 6a 1b 3c 2c 5f 08 bb d4 6f 8d bb
       -0.005270315 0.009485726 -0.002080868 -0.0043163095
000260 88 1a 24 3b 1b aa a8 bc ce b0 f8 3b 62 e8 48 3b
       0.0025040228 -0.020588925 0.007589436 0.003065609
000270 d7 6d da 3c fe a9 d7 bb db 92 a0 3b dc af 57 bb
       0.026663704 -0.006581544 0.004900319 -0.0032911217
000280 9a 06 cc 3b 1b 1f b2 bb 43 be 43 3c e7 ac d6 bc
       0.006226373 -0.005435837 0.011947217 -0.026205493
000290 fb 95 17 bd 5a bf 27 bd b0 b0 27 3d 3b b0 31 bc
       -0.037008267 -0.04095397 0.040939987 -0.010845239
0002a0 89 54 16 3d db 5e 4d 3c 3c f2 a5 bc 79 5f ec 3a
       0.036701713 0.012534822 -0.020257108 0.0018033824
0002b0 dd 1c 94 ba e7 3b 15 3d 4b d8 20 ba 6a d4 cd bb
       -0.0011300106 0.03643408 -0.0006135746 -0.0062814252
0002c0 3a 26 7f ba c7 16 ce bc b7 7b c4 3c db 94 d9 3b
       -0.0009733174 -0.025157345 0.023984773 0.0066400594
0002d0 3e 82 58 3d c7 36 06 3b 6d 42 bf 3b 35 ab 88 3c
       0.052858584 0.0020479427 0.005836776 0.0166832
0002e0 26 fd ef bc 25 d9 af bb af d3 a7 3c 2b 4e 8e bc
       -0.029295515 -0.005366462 0.02048668 -0.017371258
0002f0 48 96 81 3c c2 4a 03 3d d2 e6 24 3d aa d1 6b bd
       0.01581873 0.032053716 0.04025919 -0.057572998
000300 56 2e 40 bc 89 53 00 3b b8 f7 7e bc b7 4e 1c 3c
       -0.011729797 0.001958104 -0.01556199 0.009540251
000310 44 e4 aa bb a9 14 93 bb 63 7b 5e bc b4 7b 94 39
       -0.0052151997 -0.004488547 -0.013579222 0.00028320926
000320 dc a3 d6 ba aa 30 34 3c 27 a5 46 bb 60 a3 95 bc
       -0.0016375738 0.010997931 -0.003031084 -0.01826638
000330 ba ab c6 3b b0 9e e5 3b ac d3 9f 39 1c 45 1f b9
       0.006062952 0.0070074424 0.0003048455 -0.00015189167
000340 58 b3 57 bc e8 b3 df bb 48 9e 9c bc dd 9e 93 bc
       -0.0131653175 -0.0068268664 -0.019118443 -0.018020088
000350 e3 40 09 3c 96 76 aa 3c f2 51 0e 3c 24 17 bf bb
       0.008377287 0.0208085 0.0086865295 -0.005831616
000360 b3 50 e6 3c 65 f7 f2 3b 50 36 03 bd b6 03 49 3c
       0.028114652 0.0074147456 -0.03203422 0.012268951
000370 36 2a 0d bc d9 03 24 3a 44 94 83 bc 14 00 22 bb
       -0.008616021 0.0006256677 -0.01606191 -0.0024719285
000380 70 d3 a4 3b b5 be 19 bc 7b 2e 2a bc f2 b9 cc 39
       0.005030088 -0.009383847 -0.010387058 0.00039048452
000390 87 3a 74 bc 82 a2 87 3c f2 3e ee bb f2 f9 19 bb
       -0.014906532 0.016556982 -0.0072706873 -0.0023494926
0003a0 12 de 75 3b bf 56 01 bc 7f a7 d2 3b 92 99 e4 bb
       0.0037516397 -0.007894217 0.0064286585 -0.006976315
0003b0 12 cc 13 bb 4b 39 f3 3b 8b 10 db bb a6 92 93 3b
       -0.0022552055 0.0074226013 -0.0066853217 0.004503566
0003c0 30 c0 1d bc 41 a2 d8 bb 4c c8 1d 3b 86 a4 7b bc
       -0.009628341 -0.006611139 0.0024075685 -0.01535905
0003d0 15 59 54 bc 0e d1 57 bb 61 eb b4 3b d7 93 3d 3c
       -0.012960692 -0.0032931003 0.0055212234 0.011570892
0003e0 6d 80 cb bb 16 d7 87 bc 16 61 0e ba a4 4d ff 3b
       -0.006210378 -0.016582053 -0.0005431337 0.007791238
0003f0 9d bd 42 bc c5 16 cd 3c 55 47 22 bb ce 5d 9f 3c
       -0.011886028 0.025035271 -0.0024761755 0.01945391

fc1.bias f4 [2]
000000 f7 c2 1f bd 65 40 92 3c
       -0.039004292 0.017852971
