api/final_cnn_model.pth (torch, 134696 bytes, 10 tensors)

conv1.weight f4 [8, 3, 3, 3]
000000 5e c5 e2 bd 13 f0 19 bd e3 b6 30 be 1a 88 38 be
       -0.11072801 -0.03758247 -0.17257266 -0.18020669
000010 a6 5c 03 3e 4b 15 a2 3d 85 a5 c3 3d 4e 69 f2 3d
       0.12828311 0.079142176 0.09553055 0.118364915
000020 c3 04 a5 bd bf 6f 26 3e 4c a7 20 3e 8b 6a 47 3d
       -0.08057549 0.16253565 0.15688819 0.04868559
000030 4a 61 15 3e 90 77 0e 3e 57 80 8b bd c2 e2 fb 3d
       0.14587894 0.13912797 -0.06811588 0.1229911
000040 c6 7d 22 3e f2 ef 99 3d 49 5b 6a be 96 9d 0e bd
       0.15868291 0.07516469 -0.22886385 -0.034818254
000050 6b fd b4 bd 63 d8 26 be 0b 26 da bd 7e 71 0e be
       -0.08837398 -0.16293482 -0.10651787 -0.13910481
000060 6f 4f 49 bc f7 9e 3c 3e 5b 94 5a bd 4c ea 1f be
       -0.012287005 0.18420015 -0.05336414 -0.15616721
000070 6f 57 dd 3c 5d 5f 00 3e a0 e9 ef 3c 90 f5 80 bd
       0.02701923 0.12536378 0.029286206 -0.06296837
000080 9e 1b 0b 3e 15 b9 73 bd 53 b2 98 3d 43 29 62 3d
       0.13584754 -0.05950268 0.07455888 0.05521513
000090 7e a0 13 3d 78 8b 4c 3d 50 e7 6f be ce 4d a0 3c
       0.03604173 0.049937695 -0.23428082 0.01956835
0000a0 a3 a2 07 bd dd ec 21 3e 61 7c c6 bd 8e 9f 7d bd
       -0.033114087 0.15813012 -0.09691692 -0.06191974
0000b0 ee 1d 3c 3e 9c ef e5 bc 86 ed d6 3d c5 73 89 bd
       0.18370792 -0.028068356 0.10494523 -0.067115344
0000c0 0f 4e 44 3e 99 ef 29 be 3f eb 73 bc 85 b3 1b 3e
       0.19170402 -0.16595306 -0.01488763 0.152052
0000d0 a8 54 77 3e 91 09 19 bd f8 7e 8c be 2c 2e 0a be
       0.24153388 -0.03736264 -0.2744062 -0.13494176
0000e0 f2 35 c9 bd 63 45 ed bd 80 a3 81 be 38 18 e2 bc
       -0.098247424 -0.115855 -0.25320053 -0.027599439
0000f0 8c 70 89 be 5b 96 d2 bd ce 63 14 be fe 5f d6 bd
       -0.2684368 -0.10282584 -0.14491197 -0.10467528
000100 32 c9 d5 bd 93 51 e3 3b be 82 8d 3d 53 0c 89 bb
       -0.104387656 0.0069372146 0.06909703 -0.0041823774
000110 95 44 58 3e 65 86 4b be 26 df c3 3d 9a a9 c3 3d
       0.21119912 -0.19875486 0.095640466 0.09553833
000120 b4 6e 22 3e 3b 3f 0f be 27 24 2b 3e d3 1c 10 3e
       0.15862542 -0.13988964 0.1671301 0.14073496
000130 b7 f4 c6 bd 8b 99 b9 bd 60 d4 f8 3c 02 49 13 3d
       -0.097146444 -0.09062489 0.030374706 0.035958298
000140 9e 1c c2 bc 28 28 2f 3b 5e b5 a4 bd eb 2b 31 3e
       -0.023695286 0.0026726816 -0.080424055 0.1730191
000150 1f ee 22 3e 18 91 18 3e 15 0a 11 be cd fc 6a 3c
       0.15911148 0.14899099 -0.14164002 0.014342499
000160 8c e3 0f be 6c 2e 79 be 19 17 98 3d f9 3a 43 3e
       -0.14051646 -0.24334115 0.074262805 0.19065465
000170 7f 2e 7b 3e 92 95 3d 3e d9 e2 35 be b9 8f f0 3d
       0.24529456 0.18514088 -0.17762317 0.11746163
000180 42 5c 17 bd 37 e9 8c be ae 8f a4 be 84 a3 35 bd
       -0.03695322 -0.2752168 -0.3214087 -0.044345394
000190 13 27 38 3e a1 44 2d 3e e7 70 34 3e 28 c7 9d 3d
       0.17983656 0.16920711 0.17621194 0.07704002
0001a0 b1 e5 85 3c 2f 13 5e be ab 6a 93 be 70 ad 65 be
       0.016344877 -0.21687005 -0.2879232 -0.22429442
0001b0 5f dd 0d bd 82 9d 4d bd 19 32 85 bd 9a de 0f 3e
       -0.034634944 -0.05019904 -0.06503696 0.1404976
0001c0 08 01 da 3d 68 4e 03 be b5 5f 46 3e 76 d2 1b be
       0.10644728 -0.12822878 0.19372447 -0.15217003
0001d0 38 e6 36 3e 6d 6f ef bd f7 5f ac 3d 5d 10 20 be
       0.17861259 -0.11691175 0.08416741 -0.15631242
0001e0 6e 62 84 3d ab cd 5f be 0f b7 23 be c2 90 f1 bd
       0.064640865 -0.218558 -0.159878 -0.117951885
0001f0 17 79 49 be e1 06 a0 3d 65 03 0e 3e b2 d8 08 be
       -0.19675098 0.07813812 0.13868482 -0.13363913
000200 a1 9c 62 be 75 e0 92 3d 2f 60 0d be 3e 7a 03 be
       -0.22130062 0.07171718 -0.13806222 -0.128396
000210 45 a1 29 be 2c 40 be bd 7e 89 65 be 5b 39 c1 bc
       -0.16565426 -0.092895836 -0.2241573 -0.02358692
000220 29 79 fb 3d ce 9d 0c bd 8e b9 1f 3e 46 a1 d7 bd
       0.12278969 -0.03433018 0.15598127 -0.10528807
000230 62 d5 23 3e 97 29 5a 3e 2f 41 b6 bd cb 0a 3e be
       0.15999368 0.21304928 -0.088991515 -0.18558805
000240 2e ac 61 bc 95 c1 dd bd 77 13 1a be e4 6a 0c be
       -0.013773961 -0.108279385 -0.15046488 -0.1371265
000250 fb 4f a7 3d 51 d7 f7 3d d8 57 27 be 28 80 8a be
       0.08169552 0.12101615 -0.16342103 -0.270509
000260 32 8c 98 3c 07 26 86 3e d8 5e 60 3d 58 71 93 3e
       0.018621538 0.26200888 0.05477795 0.28797412
000270 f7 0d c4 3d 6e db 5c 3d a0 63 ad bd 7c c7 1c be
       0.09572976 0.053920202 -0.084662676 -0.15310472
000280 d8 2f a4 bc c7 2a 04 be 64 a8 23 bd ca 65 2d be
       -0.020042345 -0.12906943 -0.03995551 -0.1693336
000290 a2 83 69 bd f4 ee 14 be 03 20 2c be fb fd d2 3d
       -0.0570103 -0.14544278 -0.16809087 0.10302349
0002a0 c4 12 0d bd 9f 37 0d 3d ad 68 51 be 27 71 83 3e
       -0.034441724 0.034476873 -0.20450087 0.25672266
0002b0 eb 2a 0e be 76 28 7a bd 6b be 82 3d 44 f0 56 3e
       -0.1388356 -0.061073743 0.063839756 0.20990092
0002c0 9d aa 09 3e 42 2e f8 3d 63 a1 b0 3c 8a e9 05 3e
       0.1344399 0.12118198 0.02156133 0.1307737
0002d0 3c 26 12 3e 3b 93 99 bd 65 68 68 be 68 8c c8 3d
       0.14272398 -0.07498785 -0.22696073 0.09792405
0002e0 2a 11 92 3d 25 49 2c be 66 4a 11 3e ea a3 d4 3d
       0.0713218 -0.16824777 0.14188537 0.103828266
0002f0 e2 8c 57 be 31 2e 4d bd 2b 40 54 bd 53 20 5a be
       -0.21049836 -0.05009288 -0.051819008 -0.21301393
000300 bd c8 48 3e fe ed 12 3e 5e 69 ce 3d e9 23 a4 bd
       0.19607826 0.143486 0.10078691 -0.08014662
000310 1c 15 db bd a3 3f 80 bd 35 40 dc 3d 21 3e 2c 3e
       -0.10697386 -0.06262138 0.10754434 0.16820575
000320 c3 4c a6 bd 0b eb f7 3c e8 9a 80 3e c1 c3 31 3e
       -0.0812011 0.030263444 0.25118184 0.1735983
000330 0f da 11 bd 1e fe 89 bd 33 65 df 3b 9f 81 3f be
       -0.035608348 -0.06737922 0.006817484 -0.1870179
000340 e0 16 42 bc 51 f6 59 be 57 c4 d5 bd ba fd 5c 3e
       -0.011846274 -0.21285369 -0.104378395 0.21581164
000350 f3 02 56 be 24 b1 08 3d 0c 4a 7c bd d3 d5 9c bd
       -0.20899563 0.03337206 -0.061594054 -0.07657971

conv1.bias f4 [8]
000000 bd b3 a8 bd 5a 4e d1 3d 2f 7c 9c 3d 8b 33 02 3e
       -0.08237407 0.102200225 0.07640874 0.12714975
000010 0d 51 7f be 02 16 04 3e 3c 11 8c 3e f2 b1 9c 3c
       -0.24933262 0.1289902 0.273569 0.01912782

conv2.weight f4 [16, 8, 3, 3]
000000 2c ad ab 3d 4b 08 2a be fd 8c ab bc e4 95 8e 3d
       0.08382639 -0.16604726 -0.020941252 0.06962183
000010 95 7b 81 3d 00 b6 96 3d 38 3d 93 bd 47 09 08 3e
       0.063223995 0.073589325 -0.07189411 0.13284789
000020 f0 58 29 bc 1b df 8c 3d 3c 00 c5 bd 03 a2 e1 bd
       -0.010336146 0.068784915 -0.09619185 -0.110172294
000030 ee 25 41 3d 1d f9 c8 bd b7 45 82 bd 63 cc 98 3d
       0.047155313 -0.098131396 -0.06360953 0.07460859
000040 e5 e3 94 bc 5a a3 88 bc 44 41 00 3e 18 25 a4 3d
       -0.018175075 -0.016679455 0.12524897 0.080148876
000050 80 71 85 bd 31 cf e7 3d 8d 82 22 3d ce a7 00 3e
       -0.06515789 0.113188155 0.039675284 0.12564012
000060 f4 26 a0 3c a7 11 ea 3d 97 ee 32 3d 42 55 57 3e
       0.019549824 0.11429148 0.04368457 0.21028617
000070 c6 55 0e 3e 2c 23 2d 3e a6 f1 be bd 19 40 25 bd
       0.13899907 0.16907948 -0.093234345 -0.04034433
000080 88 27 aa 3d fb d8 9d bd 26 9a 46 3d 39 9a df bc
       0.08308321 -0.07707401 0.04848685 -0.027295219
000090 17 7a 64 bd 2e e5 ef bd db 23 18 3d 61 72 d1 3b
       -0.055780496 -0.117136344 0.03714357 0.006391809
0000a0 b6 eb 1a 3e 16 2c 97 3d 4f ae 52 3d 52 06 01 3e
       0.15128979 0.073814556 0.051435765 0.12600067
0000b0 8f ee 9e bd 15 4a 90 3d 9d d3 ef 3d 19 3b 99 bc
       -0.07760345 0.0704538 0.11710284 -0.018704938
0000c0 af 91 d4 bd 93 ba f7 bc be ed 12 3d d3 76 b7 bd
       -0.103793494 -0.030240333 0.03587126 -0.08958211
0000d0 35 61 c3 bd d6 59 78 3d 80 b6 dc 3d 6b c2 ed 3c
       -0.09540025 0.06063255 0.107769966 0.02902337
0000e0 d1 fd 03 bd 1f 0d 02 3e 8f ec 27 3d bf b1 a1 3d
       -0.03222448 0.12700318 0.040997084 0.078952305
0000f0 27 94 07 3d 3b bd af 3d 30 98 2b 3e fb bd e6 3c
       0.033100273 0.08581015 0.16757274 0.028166762
000100 81 a1 eb 3d 67 4e d4 3b 19 03 0b 3d da ff 56 3d
       0.11505414 0.006479073 0.0339385 0.052490093
000110 76 42 47 bd 57 47 68 3d 01 d3 db bc 82 b8 bc 3c
       -0.048647366 0.05670866 -0.026834013 0.023037199
000120 8d ee bb bd f1 d3 24 be 3f 44 1d be cc cf 12 be
       -0.09176359 -0.16096474 -0.15358065 -0.1433708
000130 a6 6d 36 be 43 b0 41 bd 90 7e 90 3d a6 9d 8b bd
       -0.17815265 -0.047287237 0.0705539 -0.068171784
000140 4f 13 c4 bc 74 3a 12 3e a9 cc 0d 3e 5a b2 af 3d
       -0.023934988 0.1428011 0.13847603 0.0857894
000150 8f 53 73 bd db 79 9b bb f8 fb c8 3d 6b 4b ff bc
       -0.05940586 -0.004744751 0.09813684 -0.031163892
000160 a9 f2 41 bd 2c e1 a1 bd 75 ac 22 be 52 91 11 3d
       -0.04735056 -0.07904276 -0.158861 0.03553898
000170 ec 77 06 3e 07 c8 fa bd db 57 44 3d 2f 25 24 3e
       0.13131684 -0.122451834 0.047935348 0.1602981
000180 21 1c ed 3d 7d 40 fa 3d e1 64 e0 3d fb c7 30 bd
       0.11577631 0.122193314 0.10956741 -0.043159466
000190 75 ae 92 bc e4 b4 aa 3d 1b 24 54 3e b8 3d 3b 3d
       -0.017905453 0.083352834 0.20716898 0.045713156
0001a0 63 c7 aa 3d bf d6 a3 bd a6 87 4b 3d f7 f4 bc 3c
       0.08338811 -0.07999944 0.04968991 0.023066027
0001b0 3c 7c 1b be c7 dd 81 bd e3 3a 91 bd 71 a3 0d bd
       -0.1518411 -0.06341129 -0.0709131 -0.034579698
0001c0 17 dd f7 3d 11 e4 6e 3d 36 b9 38 3d ad b2 95 3d
       0.121027164 0.05832297 0.045098506 0.0730947
0001d0 5f 06 33 bc 17 44 70 bd c0 10 92 3d e1 8b 97 3c
       -0.010926812 -0.058658686 0.07132101 0.018499317
0001e0 f6 50 d4 3c 5d 94 08 3e 5b e7 19 3e af 44 db bc
       0.025917511 0.13337846 0.15029661 -0.02676615
0001f0 76 fd 84 3c eb 11 1a 3e 1a 60 0b be 6b 34 0c be
       0.01623414 0.15045898 -0.13610879 -0.13691871
000200 a9 08 e7 bd 58 a2 44 3d 4b 83 b7 3c ee d1 d5 bd
       -0.11280949 0.048006386 0.022401473 -0.104404315
000210 de 44 a7 bd 1b 00 a1 bc 1f f4 41 bd 68 df 80 bd
       -0.08167432 -0.01965337 -0.047351953 -0.06292611
000220 1e 8e c6 b9 b4 cd d7 bd 50 95 4b be c1 62 58 be
       -0.00037871388 -0.10537282 -0.19881177 -0.21131422
000230 60 49 2a be 42 4d 4e bd 89 96 1e be a0 2f a4 bd
       -0.16629553 -0.050366648 -0.15487112 -0.08016896
000240 71 8b 73 3d c8 36 e2 3d 24 4c c1 3d bc e5 38 bc
       0.059459154 0.11045605 0.09438351 -0.011285242
000250 14 0e 99 3b c6 2f 9e 3b 92 99 22 bd fa d0 c3 3d
       0.0046708677 0.0048274724 -0.039697237 0.095613435
000260 6f 03 ba 3d 34 40 b3 3c 84 45 6f bd 42 93 72 ba
       0.09082686 0.0218812 -0.058415905 -0.00092535105
000270 f7 17 01 3c 85 12 fa bb e3 6d 7f bd 79 35 30 3b
       0.007879249 -0.007631602 -0.062360656 0.002688734
000280 fe f1 ef 3d 0b dd f2 bc 5d 1c 3a 3e 09 87 cf bc
       0.11716078 -0.029646417 0.18174882 -0.025332944
000290 65 cd f2 bd 1d 66 d5 3d 8d 1b 85 39 8c 20 92 bd
       -0.11855582 0.10419867 0.00025388264 -0.07135114
0002a0 8c 65 35 3d bb a6 dc bb 08 c6 8f 3d 75 8e 32 3e
       0.044286296 -0.006733743 0.07020193 0.17437156
0002b0 64 01 10 be 5f a7 1c be d4 dc c0 3d bd 71 8d bc
       -0.1406303 -0.15298222 0.094171196 -0.017266149
0002c0 5f d3 0b be 54 fa 0b bd 14 08 1a 3e 1a a6 c7 3d
       -0.1365485 -0.03417428 0.15042144 0.09748478
0002d0 21 67 24 3d 96 0a 4f bd ec 80 b4 ba 93 41 0a 3e
       0.040137414 -0.050547205 -0.0013771332 0.13501577
0002e0 4f 0a 94 bc e1 a9 c5 bd 24 11 c7 3c b2 b3 d0 bd
       -0.018071322 -0.096515425 0.024300165 -0.10190524
0002f0 29 9d a9 bd 1e 7b 1d 3d fa 6d 3a bc 53 56 18 3c
       -0.08281929 0.03844749 -0.0113787595 0.009297925
000300 b9 40 69 3d 7f be fe bb 8c 3f 1b be b3 ba 03 3e
       0.05694649 -0.0077741737 -0.1516096 0.12864189
000310 6e 90 49 3b d4 8e 0a 3e fd a6 08 3d be fe c2 bd
       0.0030756253 0.13531047 0.033362377 -0.095212445
000320 65 1d 0f 3e cd 8c 86 3c f4 94 8a bd d7 be 7d 3d
       0.13976057 0.01642456 -0.06766692 0.061949577
000330 5a 44 97 3b 09 ea 93 bd f5 2f df 3d 63 ad 71 3d
       0.0046163024 -0.07222373 0.10897819 0.059003245
000340 c7 1b 05 be 7d 43 1b 3e 79 39 b5 3c df f8 1c be
       -0.12998877 0.15162463 0.022122132 -0.15329312
000350 c3 a9 3a bd 6a 6a d2 3d ae 50 19 3e b1 a5 a0 3d
       -0.045572054 0.10274203 0.14972183 0.07844103
000360 c3 64 00 3e 2b 9a c4 bd b7 9a 9f bd 98 52 66 be
       0.12538438 -0.09599718 -0.077931814 -0.22492445
000370 ac c1 c6 3c 5d cb 7b be 8d 4e b2 bd 8a 35 ed bd
       0.024262272 -0.24589296 -0.087063886 -0.115824774
000380 c2 ea b6 bd 20 b8 8e 3d 83 d7 29 be eb 85 6f 3d
       -0.08931495 0.06968713 -0.16586117 0.058477324
000390 b1 2c bc 3c 9a e5 92 3d 2b 7d 40 3c af f5 1d 3d
       0.02297053 0.07172699 0.011748592 0.03856438
0003a0 ee 9b 36 bd 04 a4 11 bd 94 0a 13 3e 6c bd d3 3d
       -0.0445823 -0.035556808 0.14359504 0.10338864
0003b0 2e 52 63 3d ac fc 20 bd f9 f6 e5 3d 58 3f c0 bc
       0.055498295 -0.039303467 0.11228747 -0.023467705
0003c0 4e 59 ca 3a 3d 5d ba bd 92 bd 0e be 91 80 22 3e
       0.0015437992 -0.09099815 -0.13939503 0.15869357
0003d0 0b 9f bb bd ee 9c 5d be b5 5c cd bd ee 3c 23 be
       -0.091611944 -0.21641895 -0.10027448 -0.15941212
0003e0 0c be 2f bb f4 44 26 3d e0 56 89 bd ca f8 92 3d
       -0.0026816158 0.040593103 -0.06706023 0.07176359
0003f0 e4 52 9d 3d 71 d8 e4 3d 3e 60 af 3c bc 02 93 bd
       0.07681826 0.111740954 0.021408197 -0.07178256

conv2.bias f4 [16]
000000 6a d8 18 3c ef 2c 9f bd 1b 88 d6 bd ee 4f 37 3d
       0.009328941 -0.07772242 -0.10475179 0.04475396
000010 3e 48 4f 3d cd 67 3b be a9 c3 0b be ad 00 17 bc
       0.050606005 -0.18301316 -0.13648857 -0.00921647
000020 9a 35 11 3e 0a 90 15 3d 89 70 a8 bd 28 0f 5b bd
       0.14180604 0.03651432 -0.082245894 -0.05348125
000030 84 56 a5 bb c8 0a 47 3d 12 9c f6 bd 5d a6 0b 3e
       -0.005045714 0.048594266 -0.12041487 0.13637681

conv3.weight f4 [32, 16, 3, 3]
000000 30 ee 41 3d 22 78 08 3d 0f b2 67 3d 0b 28 af bd
       0.047346294 0.033317693 0.056566294 -0.085525595
000010 5e d6 0f bd 8f 23 93 3c 10 4c e0 bd 2b 7a 85 3d
       -0.035116546 0.017961292 -0.10952008 0.06517442
000020 99 e4 f2 3d f8 71 84 bd 3b 3e b0 3c 38 c5 8c bd
       0.11860008 -0.0646705 0.021514049 -0.06873554
000030 ff b9 a1 bd 19 8a ee bc 0c a7 b1 bc a6 0a e0 bd
       -0.07896804 -0.029118584 -0.0216861 -0.10939531
000040 31 6c c5 3d e0 0f 0d 3e 07 d3 81 bc 9f 5f 9a bc
       0.096397765 0.13775587 -0.015847696 -0.018844424
000050 c7 5c a9 bd 18 f7 8a 3d 9d ee e1 3d e3 4f 0d bd
       -0.08269649 0.06785411 0.1103184 -0.034500014
000060 a0 6b ee bd d5 57 1e be 14 c0 2d be 12 af 18 3d
       -0.116416216 -0.15463193 -0.16967803 0.037276335
000070 b3 74 7f 3d 88 7d bd 3d 4f dd 8e 3d a8 6a e5 3d
       0.062367152 0.09252459 0.06975805 0.11201984
000080 61 44 09 bd 78 78 fa bd 93 65 88 bd 8a ef 1a be
       -0.033512477 -0.12230009 -0.06659999 -0.1513044
000090 28 d4 5d bd 66 75 7e bd 5c b3 e6 bc cd 20 81 3d
       -0.054157406 -0.06212368 -0.028161697 0.063050844
0000a0 aa 56 a5 bb 07 ce 5b 3c da 71 0f 3d f8 37 8c 3d
       -0.0050457316 0.01341582 0.035020687 0.06846613
0000b0 2d 09 65 bd 72 32 62 3d db 56 5c bd 69 6b ac bd
       -0.055916954 0.05522389 -0.05379377 -0.08418924
0000c0 ab 42 93 3b d2 80 04 be 5f 9e 83 bd 1b 2e c7 bd
       0.0044940314 -0.12939766 -0.06426691 -0.09725591
0000d0 a2 c4 11 3d 6b df f1 3d 59 57 fc bb c0 12 c7 bb
       0.035587914 0.11810192 -0.0077008423 -0.006075233
0000e0 51 03 53 bd e3 44 26 be 84 bb ca bc aa 44 9e bd
       -0.051516835 -0.16237216 -0.024747618 -0.077279404
0000f0 9d ca 1e bd 46 49 01 be c1 aa 74 3c 8c a9 34 3d
       -0.038767446 -0.12625608 0.014933289 0.044107005
000100 38 b1 58 3c ef aa 02 3d 49 a5 d6 3d 53 9c 17 3d
       0.013225846 0.031901296 0.104807444 0.037014317
000110 4e 7e 2a 3e 81 dd 30 be 61 82 c0 bc 3e 5c 0f be
       0.16649744 -0.17271997 -0.02349967 -0.14000031
000120 17 82 d2 bc eb 4f 0d bd 1f 68 44 3d 2d 31 c2 3c
       -0.025696797 -0.034500044 0.04795086 0.02370509
000130 f6 bd 00 3b a4 18 07 3e 18 72 9b 3c 61 dd 20 3d
       0.0019644476 0.13192993 0.018975303 0.039273623
000140 85 f9 14 bd 4a d0 3e bd 12 c4 c6 bc 2b 29 32 bd
       -0.036370773 -0.04658536 -0.024263415 -0.043496292
000150 6b 39 11 bd 77 f7 92 bc d5 57 ac 3c 2c 75 95 bd
       -0.03545515 -0.017940266 0.021037975 -0.072977394
000160 6a cf 04 be ae 66 27 bc 4f ba a2 bc 25 19 3f bc
       -0.12969747 -0.010217352 -0.01986423 -0.01166371
000170 9e c0 c4 bc f1 44 44 3c 2c 61 b0 ba 91 70 58 3d
       -0.024017628 0.011979328 -0.0013456694 0.052841727
000180 97 dc ca bd cc 95 98 bc 0f 27 73 bd 7e b5 f5 bb
       -0.099053554 -0.018626116 -0.05936342 -0.007498442
000190 f5 96 81 bd 86 ea 88 3d 53 00 24 be 80 23 e2 bd
       -0.06327621 0.06685357 -0.16015749 -0.11041927
0001a0 68 37 87 3d 65 46 92 3d f8 8a 83 3d cb e9 49 3d
       0.06602365 0.07142333 0.064229906 0.049295228
0001b0 be 84 18 bc 3d ba 68 bd fd 65 a3 bc 8a f8 b7 bd
       -0.009308992 -0.056818236 -0.019946093 -0.08982952
0001c0 0b 90 55 3d 4a ee bf bb 08 76 00 be 18 3b bc bb
       0.052139323 -0.0058572637 -0.12545025 -0.005744349
0001d0 37 29 4f bd f5 78 b1 bd 78 76 37 3c 23 3e 4d bd
       -0.050576415 -0.08665649 0.011197679 -0.050108086
0001e0 ee bd 80 3c 56 85 9f bd d9 13 cb 3c 0b 09 ef 3c
       0.015715566 -0.07789104 0.024789738 0.029179117
0001f0 24 f5 8a ba f1 a2 01 3d b3 9f 84 3c 08 2a dd bd
       -0.0010601622 0.031649534 0.016189432 -0.107990324
000200 4e 9f 08 be 2e 46 46 3d b6 5b af 3d 3f d2 3f 3e
       -0.1334202 0.048406772 0.08562414 0.18732546
000210 7d 84 07 be c8 d4 a2 bd f3 eb 2b 3e f9 18 bf 3d
       -0.13234134 -0.07950741 0.16789226 0.09330935
000220 5f 49 91 bc ba 4a c9 3c 09 ad 1a 3c ce 12 d1 bd
       -0.017735181 0.024571765 0.009440669 -0.10208665
000230 40 03 8f bd 75 33 85 3d 48 0e a4 3d 9d fb 9f bd
       -0.06983042 0.06503955 0.080105364 -0.07811663
000240 9c f8 bd 3d b8 4a 8d bc 8c 5a 3b bd 77 2f d9 3b
       0.09275934 -0.017247543 -0.04574065 0.0066279727
000250 ec 89 af bd 02 c7 69 ba 29 08 6a bd cb be bd bd
       -0.085712284 -0.0008917899 -0.05713669 -0.092649065
000260 cf 3a d1 3d 7a ce aa bd a9 3f 3d 3d a0 bd 62 bd
       0.10216295 -0.083401635 0.04620329 -0.05535662
000270 01 42 13 be 42 15 c7 bd bd 45 58 3d b5 45 4c be
       -0.14380647 -0.097208515 0.052800883 -0.19948466
000280 7f b2 87 bc c5 44 8f bd 38 ea ef 3c 9d d3 4d bd
       -0.016564606 -0.069955386 0.029286489 -0.05025064
000290 6d 01 b0 3d 72 2e 1e be db 6f ba bd 3b 0a 3e bd
       0.08594022 -0.15447405 -0.09103366 -0.046396475
0002a0 a3 53 be 3d 4a 6e 4b be 66 5c b0 3c 25 1f d9 3c
       0.09293296 -0.1986629 0.021528434 0.026504109
0002b0 a2 b7 cd 3d 57 7a e8 3d 80 18 a9 bd 1c 54 10 bd
       0.10044791 0.113514595 -0.08256626 -0.035236463
0002c0 9a 0a 13 3d c8 b3 ba bd 6c d7 c2 bd ea 05 b8 bd
       0.035898782 -0.09116322 -0.09513745 -0.08985503
0002d0 3e 5f c1 3d 6e 2a 2b 3c 92 2e 16 3e b6 66 85 bd
       0.09441994 0.010447128 0.14666203 -0.06513731
0002e0 9b 5d c5 bb 33 fc cf 3c 36 f6 19 bd b5 03 86 3d
       -0.0060231215 0.025388813 -0.03758832 0.06543676
0002f0 99 3b 28 3e 0b a1 23 3d 18 3e 50 3c e3 f2 1e 3d
       0.16428985 0.039948504 0.012710117 0.038805854
000300 ef 94 70 bd 3e f0 f9 3c a8 96 d6 3c e7 53 1e 3c
       -0.058735784 0.030510064 0.026194885 0.009663559
000310 7e a7 c3 bd 59 8a 8a 3d 28 ba ca 3d ba 2d 2f bd
       -0.09553431 0.06764669 0.09898788 -0.042768218
000320 cd 4d b2 3c cf 0e 02 be b6 1d 24 be e9 8a 1e bd
       0.021765614 -0.12700962 -0.16026959 -0.038706694
000330 06 5e 35 3d 80 35 90 bd 9f 19 88 bc 64 49 2e 3e
       0.04427912 -0.07041454 -0.01661378 0.17020184
000340 ed 82 f0 3c f9 88 9d 3d e2 44 e9 bc 35 1d 57 bc
       0.029359305 0.07692141 -0.028475229 -0.013129522
000350 44 9d f0 ba 0c 61 2a bd dd 69 6a 3d 17 65 f5 bc
       -0.0018357416 -0.041596457 0.057229865 -0.02995543
000360 56 d7 4a 3d d8 ea 0c bc 33 30 9d 3d 73 de a5 3d
       0.049521767 -0.008600913 0.07675209 0.080990694
000370 b6 6e 7b 3d a5 e5 0a 3e 1e e5 a5 bc b8 0f ac bd
       0.06138488 0.13564165 -0.020250853 -0.084014356
000380 00 15 48 bd 20 27 81 bd 2e 5c 20 bd d8 74 93 3d
       -0.048848152 -0.063062906 -0.03915041 0.072000206
000390 d3 57 b4 bd 1e 34 9d bc b6 89 a0 bd 87 f4 63 bd
       -0.08805814 -0.01918989 -0.07838766 -0.05565312
0003a0 fd 48 c1 3c 78 83 25 3d 70 0a 18 be 82 eb 75 3d
       0.023594374 0.04040858 -0.14847732 0.06003905
0003b0 01 ad d0 bd 4a a2 d0 3b c7 0d e6 bd b6 bd ee bd
       -0.10189248 0.0063670026 -0.112330966 -0.11657278
0003c0 62 cb a5 bd 3d 3e bb bd b4 e9 e7 bc ba 6f e7 3d
       -0.08095433 -0.091427304 -0.02830968 0.11300607
0003d0 09 ca 37 bd 8d b8 b1 3d 07 1b 02 be c2 39 40 3d
       -0.04487041 0.086777784 -0.12705623 0.046930082
0003e0 5c af 11 3e eb d6 7a be 20 8a 5d 3d 0c 3d 30 3c
       0.1422705 -0.24496047 0.054086804 0.010756742
0003f0 9d 87 f1 bd 80 02 21 be 8f 92 bf bd 7a 87 b5 bd
       -0.11793444 -0.1572361 -0.09354126 -0.08863731

conv3.bias f4 [32]
000000 36 f1 c0 3d de 03 ed 3d b6 d4 94 3d 24 f5 90 3d
       0.09421007 0.11573003 0.07267134 0.07078007
000010 65 c0 05 3d 04 50 b9 bc 04 3c be 3d 22 5d be 3d
       0.032654185 -0.022621162 0.09288791 0.092951074
000020 25 6d d8 3d 9c e4 77 3c 24 7a 88 bd 21 e5 1d 3d
       0.10567693 0.015130188 -0.066639215 0.038548592
000030 5d e1 9e bd a2 e4 f5 bd 01 cb ae 3d 0e 48 2c 3c
       -0.077578284 -0.12006499 0.08534814 0.010515226
000040 b4 31 31 3d 77 b9 a6 3d 12 9b a5 3d 9b 24 4c bc
       0.04326029 0.08140843 0.08086218 -0.012459899
000050 99 bc 1e be c1 12 36 bd 42 7d 81 bc 82 5d 03 bc
       -0.15501632 -0.04445148 -0.015806798 -0.0080178995
000060 df c4 7c bd 07 20 f1 3d 15 74 c8 3d 9f ee 7f bd
       -0.06171119 0.11773687 0.09787766 -0.062483426
000070 e9 69 e4 bd cd 59 fd bd 37 f8 d9 bd 46 5e 1e 3c
       -0.11153013 -0.12370644 -0.10643046 0.009666031

conv4.weight f4 [64, 32, 3, 3]
000000 7a d4 4f 3d 7d e9 a7 bc 39 c2 b2 bd 3a 4e 4c bd
       0.050739743 -0.020497078 -0.08728451 -0.04987929
000010 da 46 43 bd d2 58 1c bd 50 16 e4 3b 61 db cf bd
       -0.04767499 -0.038170643 0.0069606677 -0.10149265
000020 49 c5 9a 3c 3f 76 a8 3c bc bc 89 3d f5 ba 5a bc
       0.018892901 0.020564197 0.06725451 -0.013350238
000030 f4 b9 07 3c ad e8 16 bd 19 ef 01 3e 75 e4 51 3c
       0.008284081 -0.03684299 0.12688865 0.012810816
000040 a6 63 7b 3d 2f a3 f0 3d 27 57 c9 bc 6d 79 89 3d
       0.06137433 0.11749875 -0.02457769 0.06712613
000050 37 ab c7 bb 54 83 bf bd fb 5e 21 3d a6 c6 33 3d
       -0.0060934084 -0.09351221 0.03939722 0.043890618
000060 9a ed 95 bd 9c 99 c0 3c c6 6b 4c bc 98 c8 73 bd
       -0.073207095 0.023510747 -0.012476867 -0.059517473
000070 1d 45 5a bd af 73 00 be 1a 3c 85 bd de 65 52 bd
       -0.053288568 -0.1254413 -0.06505604 -0.05136668
000080 2d ed c2 3b f3 d2 fa bd 1d f7 ce bd 82 2d 6f 3d
       0.0059486837 -0.122472666 -0.10105727 0.05839301
000090 f2 d9 1a bc 0d 5c 07 3c b1 d7 2a 3c ee 15 8e bd
       -0.009451376 0.008261693 0.010427401 -0.069377765
0000a0 11 14 9a bd 8b ff 40 bd c9 1a 81 bd e9 33 c3 bd
       -0.075233586 -0.047118705 -0.06303937 -0.095313855
0000b0 6d 2d 59 3d c4 50 d9 bd f4 d1 56 3d 56 98 ac bd
       0.053021837 -0.10611108 0.05244632 -0.08427493
0000c0 e7 71 25 bd 8f 3e 1c be f0 ec 00 be c9 88 6e bd
       -0.04039183 -0.15258239 -0.12590384 -0.058235917
0000d0 54 87 0e be 20 69 0e be 20 1d 8c 3c 52 10 dc bc
       -0.13918811 -0.1390729 0.017103732 -0.02686325
0000e0 c8 c7 e2 bc b3 0c 0b bd ee bd 47 3d b0 15 05 3d
       -0.027683154 -0.033947658 0.048765115 0.032491386
0000f0 17 9f 5f bc 13 6a f7 3c 3b ac 45 bd 2c ae 0d bd
       -0.01364877 0.030201947 -0.048259955 -0.03458993
000100 8c ee 16 3d 5f a3 92 bd 5c 9d 9d bb e2 03 8d 3c
       0.03684859 -0.07160067 -0.0048100185 0.017213766
000110 9f 28 71 bd dc f1 cc 3b d0 e6 3b bd 7e 02 07 3d
       -0.05887663 0.006254418 -0.045874417 0.03296136
000120 dd a6 9c bd 60 7a 1e 3d 39 fc e4 bc e3 2c 9e bd
       -0.07649014 0.038690925 -0.0279523 -0.07723405
000130 24 84 88 bd 53 e6 06 bd 4f 52 8b bb 18 e5 7c bd
       -0.06665829 -0.032934498 -0.0042517553 -0.06174192
000140 10 ce ce 3c ce 82 bc 3b 0a 2a 15 3c 06 ae 13 3d
       0.025244743 0.005752898 0.009104261 0.036054634
000150 a0 83 02 bd 4f 31 8d bd 8b 4e b8 bd d7 b5 a0 bd
       -0.03186381 -0.068941705 -0.08999356 -0.07847183
000160 fa 88 7a bd cc 33 91 bd 05 3b 0b 3d 46 46 4d bd
       -0.061165787 -0.070899576 0.033991832 -0.050115846
000170 46 d6 88 bc 5f 63 16 bc b2 17 12 bd 4c c6 a4 bc
       -0.016703736 -0.009178965 -0.03566713 -0.020114087
000180 56 6c 19 bc 83 3d 4f bd d3 ec 9e 3c 81 2e 1e bd
       -0.009364208 -0.05059577 0.019400036 -0.03861857
000190 1f f3 96 ba e0 bb dc bb 27 17 6a 3c 23 e9 2d 3d
       -0.0011516548 -0.0067362636 0.0142877465 0.042458665
0001a0 72 cb c6 3d 88 3d 16 3c a0 10 06 3d 80 2e 2b bd
       0.09706773 0.009169944 0.0327307 -0.041792393
0001b0 95 fa 00 bd c3 8d 54 bd 75 37 d9 3c 2c 6d fe bc
       -0.031488974 -0.051893007 0.026515702 -0.031057917
0001c0 4a 04 e4 3c 7c be c0 bc 64 62 83 bd 5e 47 68 3d
       0.027834076 -0.02352833 -0.06415251 0.056708686
0001d0 9e f2 75 3c 9c 98 0f 3d 95 4a a8 bd 51 b6 17 bd
       0.015011458 0.03505765 -0.082173504 -0.037039105
0001e0 e9 ac e1 bd 62 24 b7 bd 3e 14 5b bd aa f6 17 bd
       -0.11019308 -0.08942486 -0.0534861 -0.03710047
0001f0 81 39 8b bd a8 a3 96 bd d4 45 e2 bb ca 04 44 3d
       -0.067980774 -0.07355434 -0.006905297 0.04785613
000200 53 34 9b bd de a0 09 bd 64 8c 4a bd 4c 1f a4 bd
       -0.075783394 -0.03360068 -0.049450293 -0.08013782
000210 1c 32 2f 3d ce b1 3d 3c 0e ae fc 3c 88 af 8d 3d
       0.042772397 0.0115780365 0.030844714 0.069182456
000220 1e c4 05 3d c3 58 8a bc 77 d1 a2 bd 45 09 24 3d
       0.032657735 -0.016888028 -0.079501085 0.040047903
000230 31 de 83 bb f5 7a 34 bd 7b 45 b1 bc c4 d0 9e 3c
       -0.00402429 -0.044062573 -0.021639576 0.019386657
000240 5b 3a 5b bd 43 47 99 3c c3 48 1a bb 98 c8 96 3b
       -0.05352245 0.018710738 -0.0023541905 0.0046015494
000250 53 3f d3 3b f4 dc 17 38 c8 d7 2d bd 07 a0 35 bd
       0.006446758 3.6206984e-05 -0.042442113 -0.044342067
000260 e2 ae cb 3c 98 45 df bc c3 1f a4 bc 51 90 35 bd
       0.024863664 -0.027254865 -0.020034676 -0.044327084
000270 1b 26 b1 bd bd 47 e8 bd 9c d3 3a bd d3 09 d8 3c
       -0.08649846 -0.11341808 -0.045611963 0.026371872
000280 08 7e 31 bd 12 4b 0d bc 94 65 d8 bb 0c 39 44 bc
       -0.043333083 -0.008623855 -0.006603906 -0.011976492
000290 6b c5 0d be b0 4e b6 bd ba bf d7 bd a3 fb 2f bd
       -0.1384484 -0.08901727 -0.10534616 -0.04296459
0002a0 2d 9b e3 bd 1c 5e 6d bc 83 e4 cc bd 92 0e 54 bd
       -0.11113582 -0.014487769 -0.10004523 -0.051771708
0002b0 dd 2b 2c bd 7c 87 08 bd 2e a9 7a bc ac 09 80 bd
       -0.04203402 -0.033332333 -0.015299125 -0.06251845
0002c0 65 32 23 bc ef eb 4d 3b de cd be bc da 61 e5 3b
       -0.009960745 0.0031421145 -0.023291524 0.00700019
0002d0 ab 9f d4 bd 2c 2b 38 bd 90 72 2e be 68 07 3f bd
       -0.10382017 -0.044963047 -0.1703589 -0.046637923
0002e0 21 91 4b 3d c1 10 41 bd 46 af d8 bd a6 6c a9 bb
       0.049698953 -0.04713512 -0.10580306 -0.0051704226
0002f0 0f 60 f6 3d a1 fe 95 3c 85 fc bf 3c 20 f4 8f bd
       0.120300405 0.018309893 0.02343584 -0.07028985
000300 4b d7 6f bd 78 d2 63 bd aa 0e b3 bd 8b 3f d4 bd
       -0.05855493 -0.05562064 -0.08743031 -0.10363682
000310 66 cd 1e 3d 7e 63 f0 bc 84 3e 98 3d f4 00 0d 3d
       0.038770102 -0.029344317 0.07433799 0.034424737
000320 d6 83 6c 3c ef 6a d9 bd 8d f4 e8 bc 39 c9 e4 bc
       0.014435729 -0.10616099 -0.028436923 -0.027927982
000330 79 ab 12 bd b6 39 a6 bd 4a d9 dc bc 21 a6 81 bd
       -0.03580806 -0.08116476 -0.02695908 -0.06330515
000340 60 ee c8 3a bc 9d 85 bc 7b 52 c3 3c 8a 31 02 bd
       0.001532983 -0.016310565 0.02384304 -0.031785525
000350 dc f9 f4 3c e9 d4 b5 bd 71 cb bb 3c 87 66 f5 3c
       0.029904298 -0.088785 0.022924157 0.029956115
000360 7b 06 fe 3b 26 50 b9 bc ca c8 af bd 73 8d d0 bd
       0.0077522374 -0.022621226 -0.08583219 -0.10183229
000370 6e ff dc bb c9 d8 94 bd 54 20 e0 bc 5d e3 1f bd
       -0.006744317 -0.07267911 -0.027359165 -0.03903519
000380 d3 91 1d bb 70 42 17 bd 80 44 94 bd d4 c9 4a bd
       -0.0024043217 -0.036928594 -0.07239628 -0.049508885
000390 7d f6 8b 3a 37 b6 e8 3c 44 e6 52 bd e7 df fd bb
       0.0010678318 0.0284072 -0.05148913 -0.0077476385
0003a0 21 d2 0c 3c fd dc 2c bd 54 f6 18 bc ee 49 60 bc
       0.0085950205 -0.04220294 -0.009336073 -0.013689501
0003b0 0d e1 94 bb 54 8e be bc 2b 77 c8 bd be 78 80 bc
       -0.0045434297 -0.023261227 -0.097883545 -0.015682574
0003c0 85 97 8f bd fd 47 3a bd c6 8b 2e 3d ed f7 c7 3d
       -0.07011322 -0.04547881 0.042613767 0.09764085
0003d0 13 d0 ad bd 6b c4 bd bd e4 3b 95 3d 5d f9 27 be
       -0.08486953 -0.092659794 0.07286814 -0.16403718
0003e0 9c 34 e5 3d 6f d6 33 3a ba 91 dd bb f5 bc 5a 3d
       0.11191675 0.0006860261 -0.0067617567 0.05340286
0003f0 cd 83 90 bd 80 e4 aa bd 62 04 1b be da e2 0e be
       -0.07056389 -0.08344364 -0.1513839 -0.13953725

conv4.bias f4 [64]
000000 7a 13 b3 bd e0 7c 4d ba 93 66 33 3d 2a 52 36 3d
       -0.08743949 -0.0007838737 0.043798994 0.04451195
000010 c1 95 8e bb be 9f 67 bd 2d 42 2e bb 01 5f ab 3d
       -0.004351348 -0.056548826 -0.0026589737 0.0836773
000020 fb 0b 29 3d 05 6a 4c 3d 3b 2e 0e bd 0e 19 7a 3c
       0.04127119 0.049905796 -0.034712058 0.015264763
000030 06 d3 ae 3d 55 b3 b3 bc 11 7b 86 3d b1 ea 7e bd
       0.08536343 -0.021936098 0.06566442 -0.062235538
000040 e6 c1 6a 3d 6d e8 be 3a 11 83 b9 bc ab 6f aa bd
       0.057313822 0.0014565118 -0.022645505 -0.0832208
000050 57 76 e9 3a 9c b1 66 3d d4 24 34 3d 3e 65 70 bd
       0.0017811757 0.056321725 0.043980435 -0.058690302
000060 08 df 99 3d 56 30 5c bc da 9d 48 bd e6 05 1a bc
       0.07513243 -0.013439259 -0.048978664 -0.00940082
000070 42 17 59 bd 6b f0 29 3d 73 50 79 bc b6 7f 7a 3b
       -0.053000696 0.041489046 -0.0152169345 0.0038223094
000080 af 43 2a bd c4 d4 1a 3d 8d 41 15 3d f4 da 6b bd
       -0.041568454 0.037800565 0.036439467 -0.057581857
000090 8e 82 4c bd 14 fb 73 3d 7e f9 c9 bc 47 bb 68 3b
       -0.049929194 0.05956562 -0.0246551 0.0035512017
0000a0 9d 48 e1 3c 30 39 e4 bd 97 24 8d 3d 6e 4d e9 3b
       0.027500445 -0.1114372 0.068917446 0.007119826
0000b0 95 f4 ae 3c 14 db 86 bd 6a 61 8f 3c 6e 2a 2f bd
       0.02135686 -0.065847546 0.017502505 -0.042765073
0000c0 3a 84 6d 3c f5 7b 12 3d ea 44 8c bc 1b fe 2b 3d
       0.014496857 0.035762746 -0.017122705 0.04199038
0000d0 b5 47 d5 bc fe 2c 63 bb 4f 9d a4 bd f3 30 f3 3d
       -0.02603517 -0.0034664269 -0.08037817 0.11874571
0000e0 ce 59 86 bd 33 ae f4 3c c0 95 20 bd 20 fc 2f bc
       -0.06560098 0.02986822 -0.039205313 -0.010741264
0000f0 d0 f1 bd bc 5c bb b4 3b 4e a3 9b 3b 3b 12 12 3d
       -0.023186594 0.005515499 0.004749692 0.035661917

fc1.weight f4 [2, 4096]
000000 6a a5 6b 3c 56 df af 3d f4 8f 69 3c d5 a8 48 bd
       0.0143826995 0.0858752 0.0142555125 -0.048989136
000010 8f ef 93 bc e8 d8 86 3d 24 79 e0 3d 9a 59 b3 3c
       -0.018058566 0.0658434 0.10960606 0.021893311
000020 81 eb 89 bc 65 9e 4b bc 03 17 1f 3d 49 b1 05 b9
       -0.01683593 -0.012427901 0.038840305 -0.00012749912
000030 65 87 9d 3c 9a cc 2d bc 3c 19 56 3d 3a 7b e4 3c
       0.0192296 -0.010607863 0.05227016 0.02789079
000040 2a 72 58 bd cb f0 29 3b 10 a7 cf bd 94 b9 41 bd
       -0.05284325 0.0025930877 -0.101392865 -0.04729612
000050 a4 a8 f5 3c 8e d7 02 bd 5b dc 0f 3d ac b6 fe 3c
       0.02998764 -0.03194385 0.035122257 0.031092964
000060 9b db 4f bd 4a ce a7 bb e6 ff 8e bc 56 5f 9d bc
       -0.05074654 -0.005121027 -0.017456006 -0.019210499
000070 3e d0 5c bc 7a f9 fd bc 86 69 5b bd 84 13 c1 39
       -0.013477383 -0.031002749 -0.053567432 0.0003682637
000080 13 32 03 bd b0 a0 a4 bc dc 80 9a 3d 86 07 3e bc
       -0.032030176 -0.020096153 0.07544109 -0.011598473
000090 1a 25 ab 3d df f9 1d bd 78 cc c7 bd a0 c4 e4 3c
       0.08356686 -0.038568374 -0.09755796 0.02792579
0000a0 94 85 a4 3d 43 cf 60 3d 0f 4e a5 bc e4 18 da bc
       0.080332905 0.05488516 -0.020178823 -0.026623197
0000b0 fa c9 f3 ba c6 42 4c 3d f9 cd 9a bd d8 39 60 3d
       -0.0018599622 0.049868368 -0.075588174 0.054742664
0000c0 f6 b6 23 bc b7 51 b3 bd 61 1f 7a 3d ef 7d 6c bd
       -0.009992352 -0.0875582 0.06106508 -0.057737287
0000d0 94 25 67 3d 85 ae 1c 3b 17 fe e4 3c 58 74 1e 3b
       0.05643232 0.0023907733 0.02795319 0.0024178233
0000e0 80 ee ff bc 86 e3 87 3c 28 e8 3c 3d 28 43 95 3c
       -0.031241655 0.016587984 0.04611984 0.0182205
0000f0 ab 34 fd 3c 8d b7 d9 3c ba 20 db bc a3 46 48 3b
       0.030908903 0.026576782 -0.026749004 0.003055968
000100 2d 9b 8c bc 34 f0 18 bd bf 93 15 bd d7 08 19 bd
       -0.017163837 -0.03733845 -0.036517855 -0.037361946
000110 a2 a3 eb bc 48 93 d5 3c 23 f1 69 3c ed 96 b8 3c
       -0.02876455 0.026071206 0.014278683 0.022532905
000120 bf 8d f3 3c c9 aa 88 bd e2 41 b7 3d db e8 06 3d
       0.029730676 -0.066732 0.08948113 0.032936912
000130 f2 91 36 3b 76 e9 cb 3c 4c 20 6b 3d ec 17 4b bc
       0.0027857986 0.024891596 0.057403848 -0.01239584
000140 35 0a 00 bd d6 7f a3 3a c1 0e eb bc 75 50 90 3c
       -0.031259734 0.0012474011 -0.028693559 0.01761649
000150 da c9 46 3d 5a 78 3c 3d 9c 78 2d bc 70 4c 73 bd
       0.048532344 0.046013214 -0.010587838 -0.05939907
000160 19 e7 be bc 6d cb 53 3c 8f b2 c6 bc 02 53 ab ba
       -0.023303555 0.012926918 -0.024255065 -0.0013071003
000170 d0 8a 4b be 85 9f b4 bb 8f e2 30 bd 13 44 91 ba
       -0.19877172 -0.0055121803 -0.043184813 -0.001108291
000180 d0 3e 15 3d a9 a5 84 bc 80 9e 89 bc 22 a9 80 bd
       0.036436856 -0.016192274 -0.016799212 -0.062822595
000190 be cf df bc af 93 a8 bd 3a 15 df bc da a9 81 bc
       -0.027320739 -0.082312934 -0.027231801 -0.015828062
0001a0 ea 35 04 3d 62 3e dc 3c fc ea 49 bb f2 97 b8 bd
       0.03227798 0.026885215 -0.0030810228 -0.09013356
0001b0 19 b4 b9 3c 41 6c a9 3c c3 04 3a 3c 86 f9 22 bd
       0.022668885 0.020681502 0.011353674 -0.039788745
0001c0 d6 ad 35 3c 88 e3 1f bc e8 0b 72 3c c4 68 4e 3d
       0.011088809 -0.0097588375 0.0147733465 0.05039288
0001d0 d4 f3 0e bd 08 99 ef 3c e6 dc b5 3d 80 33 d3 3c
       -0.0349005 0.029247776 0.08880024 0.025781393
0001e0 ac e5 64 3c 96 81 42 3d 66 1b f8 bb 7b 85 dc bc
       0.013970774 0.047486864 -0.0075716255 -0.026919117
0001f0 35 e9 4c bd 19 af 87 3d 30 9a 51 3d 4c 8b 04 3c
       -0.05002709 0.06625194 0.051172435 0.008089852
000200 12 c7 86 bb 53 33 a2 3b 07 63 96 3c 76 2d df 3c
       -0.0041130865 0.004949966 0.018357767 0.027243357
000210 57 86 b9 3c f0 e9 6d 3c 56 ef 2b bd 5a 94 e1 bc
       0.022647066 0.014521107 -0.041976295 -0.02753656
000220 aa 67 1c bc e3 63 0b bd 7a 2a 3f 3c ee 57 76 bb
       -0.0095462 -0.034030806 0.011667842 -0.0037589031
000230 92 6c d6 3c ea 88 7b 3d 27 64 f5 bc e8 f3 2d 3c
       0.026174817 0.06140987 -0.029954983 0.010617234
000240 98 46 0f bd 1c 29 a3 bd 46 3d 6d bd 57 aa be bc
       -0.034979433 -0.07966825 -0.057919763 -0.023274584
000250 b2 9e b7 bc c5 79 8f 3c c2 f3 cd bc 1c b2 df bc
       -0.022414539 0.017514119 -0.025140647 -0.027306609
000260 cf dc 28 bd 60 5b 05 3d cd 68 fc 3b 4a 7c 0e 3e
       -0.041226204 0.032557845 0.007702923 0.139146
000270 d2 96 9c 3d 67 57 9a 3d 60 02 8f bd 26 c2 b4 bd
       0.07645954 0.07536202 -0.06982875 -0.088260934
000280 b7 65 47 bc 80 f4 23 bc d2 21 ed 3d 65 96 5a bd
       -0.012170247 -0.010007024 0.11578716 -0.053366084
000290 10 9b f1 bd 64 eb 92 bd 7a b8 59 bd c5 fa 3a bd
       -0.11797154 -0.071738034 -0.053154446 -0.04564931
0002a0 a3 eb 04 bd d2 a1 02 bd 79 52 8b bd 13 88 a9 3b
       -0.032451283 -0.031892605 -0.0680284 0.005173692
0002b0 70 94 d3 bd 2c 9a 40 bb 3d a3 d9 bc 0b 66 66 bc
       -0.103310466 -0.0029388769 -0.026567096 -0.014062415
0002c0 c3 a2 02 bd 34 af 39 bd cf 95 87 bc 4d e5 1f be
       -0.031893503 -0.045333102 -0.016550926 -0.15614815
0002d0 30 65 7c bd 3b 55 c3 3b 8f cc 4c bd cb b5 8b bc
       -0.061619937 0.005961088 -0.04999977 -0.01705446
0002e0 e7 c7 41 bc da f1 f8 bc 88 db d5 bc 4c a6 d9 bc
       -0.011827446 -0.030388761 -0.026105657 -0.026568554
0002f0 a3 91 0f bd ad c4 17 bc 53 8d 5e bd 92 c7 3e bd
       -0.035051 -0.0092632 -0.054333996 -0.046577044
000300 66 09 bf bd 29 92 4a bc b2 59 fd 3b 25 74 75 bd
       -0.093279645 -0.012363949 0.00773164 -0.059925217
000310 76 b0 0c bd c4 17 6a bd ca b9 2c bd 1b 1d 07 bd
       -0.034347974 -0.05715157 -0.04216937 -0.03298674
000320 4c 2a 98 3c 97 52 90 3d 07 dd 82 bc 9e 80 0c 3c
       0.018574856 0.07047003 -0.015974535 0.008575587
000330 37 fb bb bc b5 cd 5d bd fc 3b b9 bd e7 72 e2 bc
       -0.022946937 -0.054151256 -0.09044644 -0.02764268
000340 61 7d 94 bc 70 ce 6d bc 6b 6b 1e 3d d6 0d 23 3c
       -0.018126192 -0.014514551 0.03867666 0.009952029
000350 5b 46 ac bd d0 e8 30 be 3c 9e 06 bd 96 cf 2f bc
       -0.08411857 -0.17276311 -0.032865748 -0.010730645
000360 d5 a9 f9 3b 90 18 5d bc b0 87 b7 bd bc e2 e6 3b
       0.0076191225 -0.013494626 -0.08961427 0.007046072
000370 e8 3a 90 bd 53 9c ba 3d 1c 33 06 bb 4d 8d 24 3b
       -0.070424855 0.09111848 -0.002047724 0.0025108636
000380 80 85 de bc b0 93 0f 3c 8b 99 28 be 4a 03 d8 3d
       -0.027163267 0.008763239 -0.16464822 0.10547502
000390 4a d5 0c 3d cb e6 86 3d 69 a4 d3 3b a8 16 bc bc
       0.034383096 0.06586989 0.006458808 -0.022960022
0003a0 ab 4d 05 bd 3f cb 4d bd b7 e2 e1 bd 9c 9f 8e bd
       -0.032544773 -0.05024266 -0.110295705 -0.06964037
0003b0 93 25 3f bd 68 eb f8 bc 12 83 44 bd 55 29 0f bd
       -0.046666693 -0.030385688 -0.04797656 -0.034951527
0003c0 96 63 10 3d cd 04 ed bb 78 8c f5 bc 4f 02 73 3b
       0.035251223 -0.0072332383 -0.029974207 0.0037080233
0003d0 82 22 ff bd 02 8e 0e 3d 74 03 9d bd 19 fc cf bc
       -0.12457754 0.034803398 -0.07666674 -0.025388764
0003e0 92 b4 3d 3d da 43 db 3c fb 41 01 3d 6d 8a 92 3c
       0.046314783 0.026765753 0.031557065 0.017888272
0003f0 ca bf 4b 3d cf 31 a9 3b 44 3f 86 bc 82 73 a1 3a
       0.04974345 0.0051634084 -0.01638759 0.0012317749

fc1.bias f4 [2]
000000 9f 3b 46 bd f7 d7 4a 3d
       -0.048396703 0.049522366
